files/adj_models/gene_based/bulkgenexpr/weights-2.pth (torch, 611428 bytes, 2 tensors)

fc.weight f4 [386, 394]
00000000: b077 d03e 91ed 89bd b862 b73d b9fe c0bd
00000010: eb2b b03c e0a7 fc3d a46d 5fbd 23fa 00bd
00000020: 2efc 69be 9aa2 013e 74f1 a93d 2084 5dbc
00000030: 2e0f febb cc62 1dbe 9b8c f03d 5b5c 8f3b
00000040: b538 cdbd 3c71 5c3d 5fb4 8ebe e0a6 74bd
00000050: 7820 c63b e2e4 babd 202e 77be b9f5 d1bd
00000060: 1983 873d 3378 6d3e a54a 11bc 9e9c 723e
00000070: 87a8 2cbe a706 25be 5de8 80bd 24e2 dfbc
00000080: 784b e63d dc44 0abc 02a1 373e 168a f3bd
00000090: 60b2 0e3c 861d 3fbd 1c3c 123d 02a3 b0bd
000000a0: 5c50 3dbd ec67 18bd ed37 613d 47f5 0d3c
000000b0: 2f71 8abb ba59 9bbe 2c53 bebd c8aa e7bb
000000c0: 1fcd 263c 4cfd 893d b27c 023d 1a54 353d
000000d0: 4dc6 65be ff17 073c 4672 0bbe b8b6 753c
000000e0: 89a1 fe3d 6e4f ac3e b59a 8b3e f715 0b3c
000000f0: e51a 773c bf78 4d3d ff3d cdbe 4d25 d53d
00000100: 29be 963d 77be 563d ea88 ae3c 3696 ac3d
00000110: aaf4 af3d 21d8 7bbd 2af2 503d a02d 25be
00000120: 6433 d7bc 3e35 773d 916a 16bd 9dee a33d
00000130: c17f b1be 29e1 433d 805f 15bc 957c d03d
00000140: f851 273e 1485 70bd b21c 193b a7a5 52bc
00000150: 5415 1ebd e18e 893e af62 e03d ccfe c73c
00000160: d040 3a3c 2150 8fbe 535b c93d 05ea d8bd
00000170: bffa 7abd fa81 05bb cf58 16bc 572f 073d
00000180: 6aae c6bc 6e3f 323b de07 9c3b d811 5ebc
00000190: a37f 02be 968c 123e b88f 3bbd 1b24 98bc
000001a0: e5af 5e3e c62c 153c 7919 41bd b9cf 013d
000001b0: 3f8c f8bb 0a07 98bd 12b0 f0bd 84b3 debd
000001c0: c122 243e 0c75 99be 2a0d 81bd 186a 8dbd
000001d0: f81f a7be 709e 083e ce62 183b bad8 aabd
000001e0: a66e c3bc 96f3 823e cda4 6b3d 43d6 aa3d
000001f0: 10e1 6d3d 6071 903e 9045 df3d c07e b03c
00000200: 994c 27be 14bd a1bd 1317 be3c ca83 9fbc
00000210: b838 e33c b42c 62bd 022d 073c 21f6 9a3c
00000220: a250 85bc 9756 a4bc aed8 a23d 9002 053e
00000230: ef7b 8f3d af42 80bd 6944 4c3e f9c2 a9bd
00000240: 009e 223d 480b fabd d115 343d bda4 c2bc
00000250: a7fa 98bd dcce f33d 8bfd 953c b5eb 2ebe
00000260: 122e 6a3e 56a1 a0bd d133 c8bd 0d3f b43d
00000270: 70b2 183c 6a8b 133c 2fdb fcbd 6e24 7e3e
00000280: 2530 9c3d ffdc fabd 54da a5be ef44 a1bc
00000290: 0037 443d 1631 413e ba6b 233d 4cca a9bd
000002a0: 9dcb 95bd 0eb8 363d 530e d7bc 0237 58bd
000002b0: 7d58 8e3d 4725 86bc 1129 27be ab6f 3cbe
000002c0: efe0 97bd 321e 823c e6a5 64bc 205e 3abd
000002d0: 7c33 a539 994f 0a3c d746 3dbd dc92 95bd
000002e0: 2e2e e13d 281e a4bd b8c6 97bc 2469 5abe
000002f0: 51da 93bc 2c12 e73d a55e 03be 4113 123e
00000300: 8d38 c83b 7956 a2be 52d4 293d a9b5 06be
00000310: 86fe 393e 5579 6a3c ba00 91bd cc8c 083c
00000320: a1ee afbc e50a 0abd cfa0 b63e d96d 9fbc
00000330: 4881 553d a5c0 57bb 5216 78ba 890e 303d
00000340: b75b e6bd 4ead a3be 6c9e 803c cf06 3b3e
00000350: 60ba 933d aaee 6bbd 1658 1bbd 60f2 603e
00000360: 4aed 34be fa3e c9bc 3cd3 15bb bd7b 203d
00000370: a0bf a7bc c7e9 abbd 6f60 b9bc 005c 59bd
00000380: 9dc6 07bc d0ac 3c3e 5164 623c ea14 49bd
00000390: 40cb af3d 3fbd c83c 37af f2bd 6e05 643d
000003a0: 46ca d13c 308f 223e e784 26bc dc01 c23c
000003b0: 99ee 27be 4c8d ecbb d10e 623d 85bf 6dbc
000003c0: 978c f03d 0883 72bc 9a25 ab3d e1c6 e1bd
000003d0: 58a6 4d3e d634 493c 76e0 87bd a481 ef3d
000003e0: 723c e53d 382c 403d 34e6 20bd a77a a03c
000003f0: 4442 103d 7429 853d 3d81 8a3d 4508 313c
0.40716314 -0.06734765 0.08954376 -0.094235845 0.021505317 0.12336707 -0.05454792 -0.03148855
-0.22850105 0.12659684 0.08298007 -0.013520271 -0.0077532744 -0.1536972 0.11745568 0.0043750233
-0.10020582 0.053818926 -0.27871987 -0.059729457 0.006046351 -0.09125687 -0.24138689 -0.10251946
0.06616802 0.23190384 -0.008867894 0.23692557 -0.16861163 -0.16115819 -0.0629432 -0.027329512
0.11244863 -0.008439269 0.17932513 -0.11891572 0.00870952 -0.046659015 0.035701856 -0.08624841
-0.046219215 -0.037208483 0.054984976 0.008664436 -0.0042249183 -0.30341893 -0.092932075 -0.0070699193
0.010180741 0.06737766 0.0318572 0.04426966 -0.22438927 0.008245467 -0.1361781 0.014997177
0.12433154 0.3365435 0.2726647 0.008489124 0.015082096 0.05016398 -0.40086362 0.10407505
0.07360489 0.052427735 0.02130552 0.08427088 0.08591588 -0.061485413 0.051012196 -0.16130686
-0.026269622 0.06035351 -0.036722723 0.08004496 -0.3466778 0.04782215 -0.009117007 0.10180012
0.16339862 -0.058720663 0.002336305 -0.012856877 -0.03859456 0.2686682 0.109563224 0.024413489
0.011367992 -0.2799082 0.09831872 -0.10591511 -0.061274286 -0.0020371662 -0.009176447 0.03300413
-0.024253089 0.0027198452 0.00476168 -0.013554059 -0.12744002 0.14311442 -0.045791358 -0.018571904
0.21746786 0.009104913 -0.047143433 0.03169224 -0.007585078 -0.074232176 -0.11752333 -0.10874084
0.16028883 -0.29972112 -0.06301339 -0.069050014 -0.32641578 0.13341689 0.0023252252 -0.083421186
-0.023856472 0.25576466 0.057530213 0.083416484 0.058075964 0.28211498 0.1090194 0.021544814
-0.16337813 -0.07897392 0.023204362 -0.019472022 0.027737007 -0.055218413 0.008250477 0.018916192
-0.0162738 -0.02006082 0.079514846 0.12989259 0.0700606 -0.06262719 0.19947971 -0.08289141
0.03970146 -0.12209183 0.04396612 -0.023760194 -0.07469683 0.1190469 0.018309375 -0.17082103
0.22869137 -0.078432724 -0.09775508 0.088010885 0.009319887 0.009005407 -0.123464935 0.24818584
0.0762637 -0.12249183 -0.32393134 -0.01968619 0.047904015 0.18866381 0.039897658 -0.08290538
-0.07314227 0.044609122 -0.026251948 -0.052786835 0.069504716 -0.016375197 -0.1632426 -0.18401973
-0.074159496 0.015883539 -0.013955569 -0.04549992 0.0003150961 0.008441829 -0.046210136 -0.07303402
0.10995136 -0.08013564 -0.018527374 -0.2132917 -0.018048437 0.11282763 -0.12829073 0.14265157
0.006110257 -0.31706598 0.04146225 -0.13155235 0.18163499 0.014311154 -0.07080217 0.00833435
-0.021476092 -0.033701796 0.35669562 -0.01946156 0.052125245 -0.0032921222 -0.0009463775 0.04298261
-0.11247962 -0.31968158 0.015700541 0.18264316 0.072132826 -0.057600655 -0.037925802 0.21967459
-0.17668644 -0.024566162 -0.0022861501 0.039180506 -0.020477116 -0.08394199 -0.022628991 -0.053066254
-0.008287099 0.18425298 0.013817863 -0.04909221 0.08583689 0.024504302 -0.11849826 0.05566924
0.025609147 0.15874934 -0.010163522 0.023682527 -0.16399612 -0.0072189923 0.05518991 -0.014510994
0.117455654 -0.014801748 0.08356781 -0.11024261 0.20082986 0.0122806635 -0.066346094 0.11694649
0.1119317 0.04691717 -0.03928204 0.019589735 0.035219446 0.06502047 0.067629315 0.010805194

fc.bias f4 [386]
00000000: bf90 95be ce44 aa3c 8eb3 9fbd 6a39 74be
00000010: b1be 05be 74d5 18bd befd a8bc 7c26 42bd
00000020: 5acf e8bc 5c14 9fbd 5010 00be 4f53 f03d
00000030: f51d 573c 92b6 e4bd 8964 16be e6f9 d5be
00000040: 6612 20be 537f acbd d434 5abc 443b 1fbd
00000050: cabd ee3c 84bd d4bc 1660 ec3d 154e 66bd
00000060: 7ade 28be d4e8 573d d56b fe3a 072a 123c
00000070: dcd2 f6bb ac1e c53d b1f4 12bd 0f38 ebbd
00000080: 09df 38be 236d 56be 5dd1 30bc acb9 a9bd
00000090: 7be7 423b 7f95 f8bd fd41 cdbc a1eb 3abe
000000a0: 5d1e 10be 873c 093e 6fb9 ad3c d152 7dbe
000000b0: bdf7 bfbd d0ed bfbd a826 2a3e c676 7ebd
000000c0: 80c5 8dbc 9071 ec3c 101b e53c adca ac3d
000000d0: 6a69 923c 7f99 02be 82fc 9dbd 941e b1bd
000000e0: b209 bc3e 7ff8 69bd aa46 963c ef5e d83d
000000f0: ac05 d8bd b313 09bc 8d6c 5f3c e0ec 07bd
00000100: 4027 3ebd a03a 08be 14a7 973d 310f de3d
00000110: c5c8 e73c 55bb 08bd 2728 2dbe 9f40 15bd
00000120: 4247 76bd b3b8 3ebd 98e2 0d3e 026d efbd
00000130: 2caa ca38 9dcf c9bd 1f0e 25be d705 17bd
00000140: d4c6 41bc e5ca 2bbc 6cf3 6cbd 0e70 00bc
00000150: 2f7b a63d 8c82 063c ef84 b3bd 05ce d03d
00000160: 5ae5 41bd 3e9d 01be 1ab6 93bc 0c8f d1bc
00000170: 29bf a5bd 2cb5 a4be 8ee3 abbc bfd4 d1bc
00000180: c314 f4bc f459 1abc 36cb d9bc 166c 8e3d
00000190: 98ea f23c 4c21 41bd 17e3 f1bd 9f2c 82bc
000001a0: 3b43 05be 9e6d dfbd e3c8 a1bd f8fd 2ebd
000001b0: b567 2cbe 6cd8 19be aaf7 c6bd 9cd7 a6bd
000001c0: cd3f f5bd a0fe 07be bb83 20bd 310f 79be
000001d0: 9ffe df3d 464f 43be 2c00 05bd ea2b 08be
000001e0: b9e0 91be 42fe acbd 43fc acbd 6d48 64be
000001f0: 808b ffbd 5af9 28bc 7a8d 94bd 1bce e5bd
00000200: 5902 c6bd de6c 9cbd 6d9f 37be 0f8e 2abc
00000210: de25 97bd a5f9 56be 00ba 27bd f494 c8bd
00000220: f592 64be 5bee 4cbe cd0f 2cbd 3191 2bbe
00000230: adb5 4bbe ceb9 38be 39a8 96bd ae7c 63be
00000240: ee45 11be 39a8 65be 66fe 5cbe c3ea 1cbe
00000250: 1f2b cdbc 61b2 75bd 395c e1bd caf6 d9bd
00000260: 0e7f c8bd 14d4 1bbe 1782 bfbd 9c2b 60bd
00000270: ef89 c9bd 03a5 e6bd a203 2ebb 413b ecbc
00000280: c613 e0bd 356a d9bd 4d5a 9ebd 6f5b 99bc
00000290: e2f9 f3bc 9acf 9bbc 67e6 b0bd 96fd cebd
000002a0: 8c3b 1ebe b964 c5bd 28fb 3fbe da27 1fbe
000002b0: 7763 97bd b1e6 e2bd 5622 3abd da5d 59bb
000002c0: cea9 f8bd ae33 72bc 26f2 2ebe b828 27be
000002d0: 40b9 57be 1e2d d6bd cd62 b2be bda0 a83d
000002e0: 551e 9bbe a48e 6dbc d231 89bc e669 9e3d
000002f0: c037 8bbd c421 163d 02bf 9e3b 5c96 27bd
00000300: 6220 0abe 797b 8bbd 0043 51be d501 6fbd
00000310: fd17 30bd 14e6 90bd 6d98 813c dda1 063e
00000320: f5db 323c 7b60 8c3d d925 17be 1fb7 b63d
00000330: b641 f0bc e815 23bd cc4f bdbd 058d 3ebc
00000340: 1e02 2fbe 14cd b7bd 591e 2fbd 903f e1bc
00000350: a46b 6cbd f529 cabc 2850 a8bd 0811 003d
00000360: 298e f3bc e3e9 073d 5050 fe3b 5f10 abbd
00000370: 61b7 5bbd 1beb 7ebe d3f0 a2bc 1e91 96bd
00000380: 7d57 21be 9bc3 37be 9b63 08bc f832 3abd
00000390: f35b b53b 2eb7 28be ad9d f7bc defb f3bd
000003a0: 061a ecbd c0de 19bd e570 72bd 9b51 e3bc
000003b0: 85c6 a6bd 5c34 95bd f1e0 47be a2dd eb3b
000003c0: 654a 2a3d 21d4 6abd c705 edbd ad77 0cbe
000003d0: 2a6b fabc 0144 7bbd 4290 21bc 6188 0fbd
000003e0: fe67 efbc 8cf1 61bd 8626 07bd 7180 ce3a
000003f0: 8eb0 52be 9698 eebc b9fc 86bd b7f7 9ebd
-0.29211995 0.020784762 -0.07797919 -0.23850027 -0.13061024 -0.03731294 -0.020628806 -0.047399983
-0.028419185 -0.07767555 -0.12506223 0.1173464 0.013129701 -0.11167635 -0.14686789 -0.4179222
-0.15632018 -0.08422723 -0.013318259 -0.03887488 0.029143233 -0.025969274 0.115417644 -0.05622681
-0.16491118 0.052712277 0.0019410799 0.008921153 -0.0075324606 0.09624991 -0.035877887 -0.11485302
-0.18053831 -0.2094007 -0.010792104 -0.08287367 0.0029740024 -0.12137889 -0.02505588 -0.18253948
-0.14074083 0.13401996 0.021206586 -0.24738623 -0.09373424 -0.09371531 0.16616309 -0.06212499
-0.01730609 0.028862745 0.027967006 0.08437095 0.017872531 -0.12753867 -0.07714178 -0.086484104
0.36726147 -0.05712175 0.018344242 0.10564982 -0.10547957 -0.008366513 0.01363672 -0.033184886
-0.04642415 -0.13303614 0.074049145 0.10842741 0.028293977 -0.03338178 -0.16909848 -0.03643858
-0.06012655 -0.04656286 0.1385597 -0.116907135 9.6638076e-05 -0.09854052 -0.16118668 -0.036870804
-0.0118271895 -0.010485386 -0.057849333 -0.007839216 0.08128964 0.008209836 -0.087655894 0.10195545
-0.047337867 -0.1265764 -0.018031169 -0.025580905 -0.080931015 -0.32169473 -0.02098253 -0.02561414
-0.029795056 -0.009420861 -0.026586156 0.069542095 0.029652879 -0.047150895 -0.11810892 -0.015890418
-0.13013928 -0.1090958 -0.07899644 -0.042722672 -0.16836436 -0.15023965 -0.09715207 -0.08146593
-0.1197506 -0.13280725 -0.039188128 -0.24322201 0.10937237 -0.19073209 -0.032470867 -0.13298002
-0.28491762 -0.08446933 -0.084465526 -0.22293253 -0.124777794 -0.010313356 -0.07253547 -0.11220952
-0.096684165 -0.07637952 -0.1793191 -0.010409846 -0.073802695 -0.2099367 -0.040948868 -0.097940356
-0.22321685 -0.200128 -0.042007256 -0.16754605 -0.19893523 -0.18039629 -0.07356305 -0.2221553
-0.14186832 -0.22427453 -0.2158142 -0.1532393 -0.025044976 -0.05998457 -0.11003918 -0.106427744
-0.09789859 -0.1521762 -0.093509845 -0.05472909 -0.09840762 -0.11261942 -0.0026552458 -0.028836848
-0.109412715 -0.106159605 -0.07732067 -0.018720357 -0.02978224 -0.01901989 -0.08637696 -0.101069614
-0.15452403 -0.09638352 -0.18748152 -0.15542546 -0.07392018 -0.11079157 -0.0454429 -0.0033167512
-0.12141763 -0.014782829 -0.1708456 -0.16324127 -0.21066761 -0.10457824 -0.34841004 0.082337834
-0.3029658 -0.01449934 -0.016747389 0.07735042 -0.06797743 0.036653295 0.0048445472 -0.04091488
-0.13488916 -0.0681066 -0.20435715 -0.058351357 -0.042991627 -0.07075134 0.015819753 0.13147683
0.0109167 0.0685434 -0.14760531 0.08921646 -0.029328208 -0.039815813 -0.09243736 -0.011630301
-0.17090651 -0.089746624 -0.04275355 -0.02749613 -0.05771984 -0.02467821 -0.082184136 0.031266242
-0.029730873 0.033182036 0.007761039 -0.08352732 -0.05364168 -0.24894373 -0.019890225 -0.07351898
-0.1575603 -0.17945711 -0.008324529 -0.045458764 0.005534643 -0.16476128 -0.030226553 -0.11913274
-0.11528401 -0.037565947 -0.059189696 -0.027748873 -0.08143333 -0.072853774 -0.19519402 0.0071980515
0.041574854 -0.05733121 -0.115733676 -0.13717528 -0.030568678 -0.06134415 -0.009861054 -0.03504217
-0.029224392 -0.055161998 -0.032995723 0.0015754831 -0.20575163 -0.029125493 -0.06591172 -0.077620916
