files/adj_models/gene_based/bulkgenexpr/weights-0.pth (torch, 611428 bytes, 2 tensors)

fc.weight f4 [386, 394]
00000000: 698b a03e cba8 96bc 0261 e33d d748 cabd
00000010: 4e6d 10bc a7ff 023e 3712 36be d0c8 8dbd
00000020: 9204 28be 97dd 4a3e 81b8 163e 9965 ff3c
00000030: 0da4 c4bc 3399 a0bd 7fd6 0f3e 425f 883d
00000040: 7d87 efbd 52cb 813d 00b6 48be 378a 93bd
00000050: fbfc aabd 9b87 83bd 2361 8abe d51a 87bd
00000060: b872 ad3d d499 0b3e 1f6c 85bc 4017 593e
00000070: 4fef 45be e271 82be adfb 8abd e559 c13c
00000080: fe8b b83d f31f 9d3c 5587 9b3d 3f9c d8bd
00000090: 7a91 9c3d 8a45 06bd 6a1a f13c 0654 51be
000000a0: f28d 63bc 2cda 0fbd a8ad 963d 4615 8d3d
000000b0: d8d6 10bc a9fd 4ebe af42 c3bd aa34 87bd
000000c0: 0ecc 583d 6c17 323d cfba d73b 53db 4d3d
000000d0: b2f5 6dbe d479 5fbd fbce 6ebe 674b 753c
000000e0: 9fbe b43d f025 ba3e 130c 163e be42 85bd
000000f0: e7e9 b33c 886b bfbd dad2 d1be d29c 023d
00000100: d9c3 753c 90d7 5e3d ba81 86bc 2790 3a3d
00000110: 874d 4a3d d64f a4bd 5794 e63b 55b5 4abe
00000120: e55b 06bd 2e82 cb3d fa5a 903b afb3 e63a
00000130: 3ff6 8bbe 101e a0bd 7a9f 49bd dc0f d43d
00000140: d2c3 f43d c58d a0bd 391b f6bc 13b1 373d
00000150: 9255 4ebc ed86 af3e b37a a63d b81e 6dbd
00000160: b511 9ebd 7579 50be ce52 443e d06b 86bd
00000170: c8ec eebd d5b8 df3c dbf3 c23c d3ab 4bbc
00000180: 530c b2bd 59ce 0f3c ba76 a33d d281 1c3b
00000190: deed dfbd 2313 a43d adfc a3bd 1ad9 b4bc
000001a0: f13f 053e 79a1 c83d 8a7c bf3a 5084 70bd
000001b0: 5164 9abd 402f 2dbd 6400 cabd 550d 66bd
000001c0: 2859 8f3d 70d8 96be 00a1 82bc 86f5 5abd
000001d0: 2153 c7be 720e b03d 2ca3 da3c d6e3 7abd
000001e0: 4a92 a1bc 76e3 7a3e 1bd5 723d c4e2 583c
000001f0: a8c0 273d a38d 8d3e 81f5 a0bc afee 17bd
00000200: 9c19 b8bd f821 67bd 0ac2 e63c b22b ccbb
00000210: 65c9 193d cd44 54bd 8bcd 1e3b 6cb0 273e
00000220: cf76 6dbd 4652 903d 7542 eb3c 5716 1e3e
00000230: 096d e33d f422 1d3c 780b 9f3b 9c99 8dbd
00000240: 3311 a93d 3a82 e4bd ca9b 9f3c 15e1 5f3d
00000250: 89d4 d1bd ad32 bf3d 3ae3 0abd 8d81 05be
00000260: 281c 8c3e 8f16 84bb 528e cebd 5fad b03d
00000270: b523 ac3c ecd7 39bd db91 2bbc 800b 1a3e
00000280: f2a4 903d 81b1 e9bd 2dc5 b3be 80b0 7d3c
00000290: ff55 09bd f876 fe3d 948a 27bc 0b96 dfbd
000002a0: e9e0 15bd c4b8 f3bc 2c61 90bb 3b85 6fbd
000002b0: 3370 323d 5e4e fbba db00 b1bd bf86 b8bd
000002c0: 9680 ae3d 3ccc 893d 8457 5ebd 0e48 1e3c
000002d0: feae f0bc 5c27 833d 0476 1f3d 47c1 f6bc
000002e0: 7156 8f3d cc39 4bbd f7ec 71bb 82c4 72be
000002f0: 906d 213c c62e 333e 2df3 b1bd d136 c13d
00000300: 2e8f c3bc 261f 90be c42f e63c c9b4 0abe
00000310: 6885 2e3e d2f1 00bd 142c e1bd 65dd 993d
00000320: bc27 65bd e80f ec3c 3dfc 973e ba1f 8bbc
00000330: 9e51 c23d 703c bb3c 0339 03bc 073a 033d
00000340: 21be 7fbe 35b9 70be 705c 923d 4c00 9e3e
00000350: e9ab 373d 3406 ae3d ed03 d4bd 1765 653e
00000360: a725 b23b 23cc d3bb 23f6 4dbd 1403 1b3d
00000370: 040c 16bd 20db 27be 1b53 85bc 5a13 fd3c
00000380: 7d06 ebbb 9fc8 223e 4249 b43b 357e bbbc
00000390: e369 b6bc 8fc3 a7bd 4a8d 2bbe cde2 b23a
000003a0: 6b12 b5bc 0d47 2d3e 5532 ab3c c85f 0fbe
000003b0: bd5e b9bd c2ff 2d3b eb43 cc3d fac2 63bd
000003c0: 2615 103d 301d 32bd 530a ba3d 1609 12be
000003d0: 6cc7 523e f7a6 0dbd cc34 26bd 2d4b f33d
000003e0: 6846 a53d 56bd 4fbc 79c2 aebc 862e 0abd
000003f0: 2ec9 ed3c b19c 863d 03a1 db3c b883 55bc
0.31356362 -0.018391034 0.11102487 -0.09877174 -0.008815123 0.12792836 -0.17780386 -0.069230676
-0.16407993 0.19811092 0.1471882 0.031176375 -0.024004007 -0.078417204 0.14046668 0.06658794
-0.11695764 0.063376084 -0.19600677 -0.07204097 -0.083490334 -0.06422349 -0.27027234 -0.06596915
0.084691465 0.136329 -0.016286908 0.21200275 -0.1932957 -0.2547751 -0.067862846 0.023602435
0.090110764 0.019180274 0.07594172 -0.105766766 0.07644935 -0.03278116 0.02943154 -0.20442209
-0.013888823 -0.035120174 0.07357341 0.06888823 -0.008840285 -0.20213951 -0.09534203 -0.06601842
0.052928977 0.043479368 0.0065835486 0.050257992 -0.23238257 -0.054559544 -0.23321144 0.014971591
0.088254206 0.3635707 0.14653043 -0.06506871 0.02196212 -0.09346682 -0.4098118 0.031887837
0.015000307 0.054404795 -0.01641928 0.04554763 0.049390342 -0.0802304 0.0070367265 -0.19795735
-0.03280248 0.09936939 0.0044053765 0.0017601157 -0.27336308 -0.07818234 -0.049224354 0.103545874
0.11951412 -0.078395404 -0.030042278 0.044846606 -0.012593644 0.34282628 0.08128872 -0.057890624
-0.07718221 -0.20358832 0.19172212 -0.06563532 -0.11666256 0.027309814 0.02379792 -0.012431103
-0.08693757 0.008777224 0.0798163 0.002388109 -0.109340414 0.080114625 -0.080071785 -0.022076178
0.13012673 0.097964235 0.0014609259 -0.058719933 -0.07538665 -0.04228139 -0.09863356 -0.05616506
0.06999427 -0.29462004 -0.015945911 -0.053456806 -0.3893061 0.08596505 0.026689135 -0.061252438
-0.019723076 0.24500832 0.059285264 0.013237659 0.040955216 0.27647123 -0.019648315 -0.03709286
-0.089892596 -0.05642888 0.028168697 -0.006230795 0.03754558 -0.051823426 0.00242314 0.16375893
-0.057974633 0.070469424 0.028718213 0.1543821 0.11104781 0.009590853 0.004853662 -0.06914064
0.082552336 -0.11157651 0.019483466 0.054658014 -0.10245616 0.093358375 -0.033908106 -0.13037701
0.27365232 -0.0040310095 -0.10085739 0.08626818 0.02101312 -0.045371935 -0.010471786 0.1504345
0.07062711 -0.11410809 -0.3511137 0.015483975 -0.033529278 0.12425035 -0.010225911 -0.1091729
-0.036591444 -0.029751189 -0.004406115 -0.058476668 0.043564033 -0.0019173136 -0.08642741 -0.09010076
0.085206196 0.06728408 -0.05428268 0.009660734 -0.029380318 0.064039916 0.038930908 -0.030121459
0.06998909 -0.049615666 -0.0036914924 -0.23707774 0.009852782 0.17498311 -0.0868896 0.094342835
-0.023871984 -0.28148764 0.028098948 -0.13545527 0.17043078 -0.031480618 -0.10994735 0.07512931
-0.055946097 0.028816178 0.2968463 -0.016982902 0.094882235 0.022855967 -0.008009198 0.03203776
-0.24974872 -0.23508151 0.07146537 0.30859601 0.04484168 0.08497277 -0.10352311 0.22401844
0.0054366174 -0.006463544 -0.050283562 0.037844732 -0.036632553 -0.16392183 -0.01627498 0.030893017
-0.0071724043 0.15896843 0.005501897 -0.022887329 -0.022267288 -0.08191597 -0.16753116 0.0013647914
-0.022103509 0.16921635 0.020898024 -0.14001381 -0.09051273 0.0026550149 0.09973892 -0.055605866
0.03517642 -0.043484867 0.090840004 -0.14261279 0.20583886 -0.03458306 -0.040577695 0.11879573
0.080700696 -0.012679419 -0.021332966 -0.033735774 0.029026594 0.06572855 0.026810175 -0.0130318925

fc.bias f4 [386]
00000000: 9d57 41be d182 493d bc7b 9fbd 17f9 85be
00000010: 4809 2ebe 37b3 97bc d020 18bd 5c97 27bd
00000020: f193 183d 5181 d8bc 0860 91bd 3fff 093e
00000030: 0e12 033c 8feb e9bd 1ccf 15be d45c cbbe
00000040: a251 59be c83c fbbd 9bd8 a73a edc2 e3bc
00000050: b85c afbb 849d aebb 568a aa3d 9ab3 19bd
00000060: 5c41 26be a2f5 af3d dc9d 7fbb 72bc 003c
00000070: 2fd2 78bd f3b9 663d 4129 51bd af78 d4bd
00000080: 6245 3abe 2361 2dbe eb4c 0abc 23fb 96bd
00000090: a593 54bd d5ca 83bd d4d4 bd3b 8948 0ebe
000000a0: 45a1 0abe 8526 b53d 8135 1cbc 2c04 8fbe
000000b0: 8d7a a6bc f0d2 a2bd 7310 123e 9cc9 91bd
000000c0: 08fe f23b e6e3 6d3d f10e b0bb 17e2 c43d
000000d0: 68f9 8e3c da36 00bd d613 c3bc dd50 a3bd
000000e0: 5194 be3e ca78 9abc f80c f73a 9bfc ad3d
000000f0: 76ae b9bd 9dbc 6d3c c8df 91bd 600b f5bd
00000100: ed75 e83b fc54 e0bd 8b10 9d3d e83c 1c3e
00000110: c385 74bb 49ed 0dbd 9f6e 51be d218 96bb
00000120: f808 49bd 77a9 d3bd 87c3 853d 45e2 59be
00000130: 7f35 26bc 289b 59bd 0bc5 0abe 3375 a43c
00000140: 23f1 8dbc 6511 0b3d 7854 3dbd 34b1 b1bb
00000150: e9bc be3d 541f c23c 2816 dcbd 4621 263e
00000160: 102c febc a9b8 f1bd 8257 af3b 9a42 cbbd
00000170: bbfb 06bd 5fe9 cabe dcdd 7a3d 1c7e 9dbc
00000180: 0e21 86bd 0508 e6bc f253 1dbb bb07 0e3d
00000190: ab6c f03a c68d bebc 97e9 f4bd 93f3 3cbc
000001a0: 3b50 fcbd eb5f 33be 6580 89bd 7339 9fbb
000001b0: 1293 2dbe 097d c8bd 18a7 8abd 3051 d2bd
000001c0: ac3c cfbd 4b6a 21be 1487 88bd 6f96 40be
000001d0: 376e c83d a186 65be c3e9 8fbd 4889 c0bd
000001e0: d611 92be 21dd 56bd 3065 e9bd 5446 6cbe
000001f0: 450f 28be 36a1 d9bd c0fa 24bd 9f08 40bd
00000200: 096f e7bd 94f2 39bd ff2d 23be 4704 09bc
00000210: 9cb1 9dbc d38a 18be 5c85 cbbc f5a3 4bbd
00000220: fc47 37be 95bb 8cbe 8cd8 d2bc 4af2 31be
00000230: eee8 7cbe 7f13 a0bd b40d 83bd d948 5abe
00000240: 517d f1bd 0eba 89be db1e 81be 42ab eabd
00000250: 6c01 4fbd 46b4 65bd aa28 02be 406b 3bbd
00000260: b511 c9bd b7eb dabd 95b9 ecbd c2d2 61bd
00000270: b24b a0bd 68e3 adbd f855 c53c 2a56 27bd
00000280: 71c3 01be 836a 13be 3031 6bbd aa9c 0dba
00000290: 1e75 8cbc fee2 aabc d911 c0bd bb0f 0abe
000002a0: 1881 09be 90c3 08be 1738 2fbe 682e 13be
000002b0: f7b5 ecbd 6864 81bd 0adc 0ebe 578a 953c
000002c0: 7942 c1bd 0e07 653b 51b0 1ebe 6fdc 1dbe
000002d0: d211 0ebe 0366 7abd 002d c0be 0242 823d
000002e0: df1f 80be f7b6 ef3c 80c4 8dbc 4e41 f83d
000002f0: d560 05bd 7345 d1bc 5607 27bd 6446 8abb
00000300: 7b49 14be b0a2 77bd f135 3abe eca7 bfbb
00000310: 0d83 9dbc 3913 84bd 3570 bf3b e78f 853d
00000320: f3c4 cebc 4eda 50bb f338 c7bd 6914 f83c
00000330: 4b62 01be e20b 8d3c a5de c0bd bf24 1cbd
00000340: 7573 3fbe 626d 0cbe bdf8 6ebd 1426 88bc
00000350: 819f 50bd c67a 18bd 5639 cbbd 8df8 2b3d
00000360: 5327 14bd cb07 cb3d da6e ea3c 424b e5bd
00000370: 6d46 6ebd b7fc 4dbe 24a3 13bd 59f7 c9bd
00000380: 0f1e 46be a086 3dbe a3b7 93bc b506 debc
00000390: eb0b d63c a5de 90bd f874 36bd 2015 0bbe
000003a0: 857f 8dbd ce4c 81bd 883d 3ebd 43da a6bc
000003b0: 4ed4 afbd a175 5abd a362 52be 68d9 80bc
000003c0: 4913 883d 5e33 55bd d0fd 3c39 7ae9 7ebd
000003d0: 5a7d 16bd 90fe 04bd 7444 c0bb 4e69 bbbc
000003e0: 4605 dbbc db20 bfbc d10c f9bc 8a97 d13c
000003f0: c6b1 3cbe 6417 10bd b0aa 2fbd f049 5cbd
-0.18881078 0.049197022 -0.07787272 -0.26166603 -0.16995728 -0.018518073 -0.037140667 -0.040915832
0.037250463 -0.02642885 -0.07098395 0.13476275 0.00799991 -0.11421882 -0.14629787 -0.3971926
-0.21222547 -0.122674525 0.0012805642 -0.027802909 -0.005351629 -0.005328836 0.08327167 -0.037524797
-0.1623587 0.085917726 -0.0039004004 0.007857429 -0.06074732 0.05632968 -0.051064733 -0.10374581
-0.1819053 -0.16931586 -0.00844119 -0.07372119 -0.051898617 -0.064351715 0.0057931934 -0.13894857
-0.13538082 0.08845238 -0.009534241 -0.2793287 -0.020322109 -0.079503894 0.14264087 -0.07118532
0.007415537 0.05807867 -0.005372875 0.09613436 0.01745291 -0.03130231 -0.02381317 -0.07974408
0.3722253 -0.018856425 0.001884847 0.08495446 -0.09066479 0.014510301 -0.07122761 -0.1196506
0.007094136 -0.109537095 0.07669171 0.15257609 -0.0037311174 -0.03465012 -0.20452355 -0.0045805955
-0.04908082 -0.10335057 0.065314345 -0.21277721 -0.01014459 -0.053126484 -0.13551728 0.020075416
-0.017326897 0.033952136 -0.046223134 -0.0054227356 0.093133755 0.023696579 -0.107464135 0.1622363
-0.03102687 -0.11802799 0.005351008 -0.099248126 -0.032954913 -0.39631173 0.061246738 -0.019225173
-0.065492734 -0.028079996 -0.0024006334 0.03467534 0.0018342932 -0.023260962 -0.11958616 -0.011532682
-0.1231999 -0.17517059 -0.067139424 -0.0048591434 -0.16950634 -0.097894736 -0.06770152 -0.102693915
-0.10118994 -0.15763204 -0.06666389 -0.18807386 0.09786647 -0.22414638 -0.070270084 -0.09401184
-0.28529233 -0.05245698 -0.11396253 -0.23073703 -0.16412075 -0.10626452 -0.040278196 -0.04688322
-0.11300475 -0.045397356 -0.15935515 -0.008362836 -0.01924973 -0.14896707 -0.024843864 -0.04971691
-0.17898554 -0.27486864 -0.025738023 -0.17377582 -0.2469823 -0.078162186 -0.06399098 -0.21316852
-0.1179148 -0.2689976 -0.25218853 -0.11458446 -0.050538465 -0.056080125 -0.12710825 -0.04575658
-0.098178305 -0.1068949 -0.115588345 -0.055132635 -0.07826938 -0.0849064 0.024088845 -0.040853657
-0.12672211 -0.143961 -0.057419956 -0.0005402068 -0.01714569 -0.020860191 -0.09378404 -0.13482563
-0.13428152 -0.13355851 -0.1711124 -0.14373171 -0.115581445 -0.06317979 -0.13951126 0.018254442
-0.09436507 0.0034946832 -0.15496947 -0.1541612 -0.13873985 -0.061132442 -0.37534332 0.06360246
-0.25024316 0.02926205 -0.017305613 0.12121831 -0.03256305 -0.025545811 -0.04077848 -0.004219817
-0.14481156 -0.060457885 -0.1818464 -0.0058488753 -0.019227529 -0.06448979 0.0058422335 0.06521588
-0.025240397 -0.00318684 -0.09727659 0.03028317 -0.12635152 0.01721758 -0.09417466 -0.03812098
-0.18696387 -0.13713601 -0.058342684 -0.01661972 -0.050933365 -0.03722646 -0.09923045 0.041985083
-0.036170315 0.09913596 0.028617311 -0.11195995 -0.058172632 -0.20115934 -0.036044255 -0.09861631
-0.19347404 -0.18508387 -0.0180319 -0.027102808 0.02612873 -0.07073716 -0.044545144 -0.13582277
-0.06909088 -0.063134775 -0.0464454 -0.020367747 -0.08585416 -0.053334836 -0.2054544 -0.015728667
0.06644303 -0.05205094 0.0001802363 -0.06223438 -0.03674064 -0.032469332 -0.0058675352 -0.022877362
-0.026735913 -0.023331096 -0.03040162 0.025584955 -0.1842719 -0.035178557 -0.04288739 -0.05378145
