files/adj_models/gene_based/bulkgenexpr/weights-4.pth (torch, 611428 bytes, 2 tensors)

fc.weight f4 [386, 394]
000000 5e 67 bd 3e 38 52 7c bc 8d 12 90 3d a3 9f e6 bd
       0.36992925 -0.015400462 0.07034788 -0.11260917
000010 c9 48 fe bc 25 4e 28 3e d1 be b5 bd 39 a2 36 be
       -0.031040566 0.1643606 -0.08874286 -0.1783532
000020 6a aa 0c be 76 76 37 3e 1a ae f0 3d 2f a7 bb 3c
       -0.13736883 0.17916283 0.11751957 0.022906868
000030 f4 8d 09 bc 1f df 83 bd 1b df d7 3d 38 67 68 3c
       -0.008395661 -0.06439041 0.10540601 0.0141847655
000040 89 bc b3 bd d4 4a 61 3d f3 ad 3f be e2 e4 96 bc
       -0.087761946 0.055003002 -0.187187 -0.018419687
000050 a3 7c 47 bd 4b 14 04 bd 91 cc 69 be 2c 71 c5 bd
       -0.048702847 -0.032245915 -0.22831942 -0.096407264
000060 36 58 2a 3d 0c af d4 3d e9 0e 57 3d e2 01 32 3e
       0.04158803 0.1038495 0.052504454 0.1738353
000070 1c c9 4e be 5d 93 6f be bb 86 28 be 57 30 f4 bc
       -0.20193905 -0.23396058 -0.16457646 -0.029808206
000080 0b d5 9d 3b 2a ae 81 3c aa ca be 3d 6e aa cc bd
       0.0048166565 0.015830118 0.09315999 -0.099934444
000090 1a f0 ef bb be 65 94 3c cb f9 68 3c b2 7c ff bd
       -0.0073223235 0.01811492 0.014219712 -0.124749556
0000a0 51 42 f5 3c 79 b7 1f 3c c7 ac aa 3c 64 29 6a 3d
       0.029938849 0.009748333 0.02083434 0.05716838
0000b0 ee 29 19 3c 16 d7 97 bd cd d4 bd bd e6 4a f9 bc
       0.009348376 -0.07414071 -0.09269104 -0.030431222
0000c0 23 3e 30 3d 13 ea 3d 3d de f0 fc bb e3 3d 83 3d
       0.04302801 0.04636581 -0.0077191433 0.06408288
0000d0 53 fc 81 be 93 8e 36 3d 61 78 f0 bd b8 3b 64 3d
       -0.2538782 0.044569563 -0.117417105 0.055721015
0000e0 03 a7 d6 3d 59 02 a0 3e 12 34 22 3e 7d 9f 16 bc
       0.10481074 0.3125179 0.15840176 -0.009193298
0000f0 ce 80 eb 3c 2a 94 12 bd 6b fb e5 be 8b 05 06 3d
       0.028747942 -0.03578583 -0.4491838 0.03272013
000100 35 ca c4 3d d2 33 ec 3c a4 62 d0 bd 17 e1 6a 3d
       0.096088804 0.028833304 -0.10175064 0.05734357
000110 da 87 21 3d eb 17 8c bd 3f 07 26 3d 9a fc 64 be
       0.0394362 -0.068404995 0.040534254 -0.22361985
000120 1d 46 a5 bd d2 66 1a bd 7c aa 96 bd 5e 07 72 3e
       -0.08070014 -0.037695713 -0.07356736 0.23635623
000130 41 92 90 be 0b 30 9c bd fc b1 e0 bd a8 01 25 3d
       -0.28236583 -0.07626351 -0.10971448 0.040284783
000140 e6 4a f6 3d 11 8a 19 be c4 f1 c8 3b ba a5 dd 3b
       0.120260045 -0.14994074 0.0061323363 0.006764141
000150 21 f1 ee bc bd ba 9f 3e c8 36 dd 3d 1c 94 42 bd
       -0.029167714 0.31197158 0.10801464 -0.04750453
000160 73 8b 85 bd b4 86 85 be 12 45 42 3e 17 4c ab bd
       -0.065207385 -0.26079333 0.1897166 -0.08364122
000170 35 c0 14 be 1d f7 6d 3d c5 bc dc 3d 71 28 5c bc
       -0.14526446 0.058096994 0.107781924 -0.013437376
000180 5b 2c 85 bd 15 38 99 3c cb bd c6 3d a3 08 1b 3d
       -0.06502601 0.0187035 0.09704169 0.037850033
000190 af 6a 00 be 04 d0 cf 3c 18 f3 dd bd a0 4a e9 3d
       -0.12540697 0.025367744 -0.10837382 0.11391187
0001a0 e1 65 96 3d 85 65 fa 3d 6d 83 0a 3b 3d 2e 2e bc
       0.073436506 0.122263946 0.0021135465 -0.010631141
0001b0 ba fc 32 bd 14 9c 15 3d 01 b3 1e be 9f 5f 38 bc
       -0.04369805 0.0365258 -0.15497972 -0.011253267
0001c0 01 11 c7 3d 8d 55 85 be 48 65 0a be 26 c0 86 3b
       0.0972004 -0.26041833 -0.13515198 0.0041122613
0001d0 36 af 95 be f6 ab 1a 3e 30 c4 18 bb b0 5a ec bc
       -0.29235238 0.1510466 -0.0023310296 -0.028851837
0001e0 33 77 36 3d a6 35 63 3e b4 bc dd 3d cc bb 8b 3d
       0.04454727 0.22188434 0.10827008 0.06822929
0001f0 e5 33 5c 3d f4 e9 4a 3e b3 68 28 bd 69 c0 59 3b
       0.053760428 0.19815809 -0.041115474 0.0033226258
000200 62 fe c6 bd a8 0e 7f 3c a6 2a 76 3b bc d5 3b bd
       -0.097164884 0.015567459 0.0037562042 -0.04585813
000210 a8 fa 3f 3c 17 ae 33 3b 87 07 0b bd ea 7a b8 3d
       0.011717476 0.0027416998 -0.033942726 0.09007819
000220 6b 03 ac bd 6f 00 1b 3e bd b8 a0 bc fe 3a 9a 3d
       -0.083990894 0.15136884 -0.01961934 0.07530783
000230 45 0c 1a 3e 01 b3 92 bc 4c 2b 51 3e 2c e8 a0 bd
       0.15043743 -0.017907621 0.20426673 -0.07856783
000240 a6 c8 73 3d c6 32 55 bd 93 9c a0 3c 55 cd c7 3c
       0.059517525 -0.052050374 0.01960591 0.024389902
000250 a5 05 30 bd 7c ac 2d 3e 22 ff d8 3c 5d 53 7b be
       -0.042974133 0.16960329 0.026488844 -0.2454352
000260 7d 72 f0 3e 12 2c ef bd aa da d3 bd 7a 87 5b 3d
       0.46962348 -0.116783276 -0.10344441 0.053595997
000270 fc 5c c1 bc 45 b5 c9 bc 3e 63 f8 bc 9d c4 29 3e
       -0.023603909 -0.024622569 -0.03032076 0.16578908
000280 d0 da c6 3d 7c 27 90 bd d4 68 c8 be 7a 77 88 3b
       0.09709704 -0.07038781 -0.39142478 0.0041646333
000290 2e 26 02 3d 4c 0c 86 3d e5 ce e0 bc 89 f1 0a be
       0.031774692 0.06545314 -0.027442405 -0.13568701
0002a0 e6 96 6a bd 02 4a d4 3c 07 7f 1f 3d 7c 41 0d bd
       -0.057272814 0.025914196 0.038939502 -0.03448628
0002b0 0d ea 09 3d 03 c2 75 bc 76 0a 30 be 1c 26 ca bd
       0.033670474 -0.014999869 -0.1719149 -0.0987055
0002c0 3c e8 83 3d 72 d5 26 3d a7 2e 17 bd d6 68 d1 3c
       0.064407796 0.0407309 -0.036909726 0.025562685
0002d0 df d0 0e 3c 58 d0 41 3b aa 6d 44 3d e3 2d e3 bd
       0.008716791 0.0029573645 0.047956146 -0.110927366
0002e0 3c f2 81 3d a1 61 09 bd 8e 0d f6 bc 9f 1f 03 be
       0.06345031 -0.03354037 -0.03003576 -0.12805031
0002f0 7d 06 51 bd 42 8e 06 3e 5b 77 73 bd 1e 1a 84 3d
       -0.05103158 0.13140205 -0.059439998 0.06450294
000300 e5 3c 87 bd 90 b6 61 be 21 2d 2e 3c 1b cb a7 bd
       -0.066034116 -0.22042298 0.010630877 -0.08193036
000310 17 13 4f 3e d0 81 01 bd ad ff c6 bd 7b 5b 84 3c
       0.20222126 -0.03161794 -0.09716735 0.016156903
000320 46 a3 a2 bd 39 d3 c3 bc 4b 97 b6 3e fe 39 19 bd
       -0.07941298 -0.02390443 0.35662302 -0.03740882
000330 06 ff 09 3d d5 29 15 bd ad 6f ca bc 33 b2 2c 3d
       0.033690475 -0.036416847 -0.024711454 0.04216213
000340 30 5e bf bd 81 e5 9d be b4 a4 44 3d 8d b6 aa 3e
       -0.09344137 -0.3083916 0.048008636 0.333424
000350 7b 74 8b 3d da 96 9b 3d 81 59 b9 bd f3 54 2c 3e
       0.06809326 0.07597132 -0.09050275 0.1682928
000360 c4 10 89 3c 22 7b 03 3d 8e 9d ee bc 71 df 50 3d
       0.016731627 0.03209985 -0.029127862 0.05099434
000370 32 0c 30 bc 9b 7e 2f be d1 88 98 3c cf af e4 bc
       -0.010745095 -0.1713814 0.018619927 -0.027915863
000380 ff 24 f4 3b d1 c8 bb 3d d2 99 91 3a e8 2e df bd
       0.0074506993 0.09169162 0.0011108464 -0.108976185
000390 bd f4 a9 bc ec 66 51 bd bf 2e 49 bd 9c a6 47 3d
       -0.020746583 -0.051123545 -0.049116846 0.048742875
0003a0 35 83 db 3d 29 d9 ee 3d dd 48 a3 3c 6a bf b3 bb
       0.10718385 0.11662514 0.019932205 -0.005485465
0003b0 25 28 1a 3d 13 5d e3 3c 95 7c a0 3d 05 db f6 bc
       0.03763594 0.027754342 0.07836262 -0.030133734
0003c0 a7 a9 e4 3c 3c e0 3b 3c 0c 44 96 3d 92 db dd bc
       0.027912928 0.011467036 0.07337198 -0.027082238
0003d0 c5 a5 db 3d 05 8a 3e 3d 3f 13 c8 bc 12 b3 07 3e
       0.107249774 0.046518344 -0.02442324 0.13251904
0003e0 40 17 cb 3d ec 65 55 3d 18 54 07 bd 29 2b 8d 3c
       0.09916544 0.052099153 -0.033039182 0.017232494
0003f0 38 d7 2e b8 7e 75 dd bc 83 83 07 3c 98 a9 28 bd
       -4.168527e-05 -0.027033564 0.008271101 -0.041177362

fc.bias f4 [386]
000000 24 1f 51 be 37 0b 61 3d 8e 4c 37 bd f2 9c 1d be
       -0.20422035 0.054942336 -0.044750743 -0.15391901
000010 13 01 f1 bd 9b 70 fa 3b 7d a4 51 3b c4 39 a8 bc
       -0.11767783 0.007642818 0.0031988912 -0.020535357
000020 e7 77 b3 bc 57 b6 65 bd 66 ce a1 bd ba 9b d3 3d
       -0.02190776 -0.056082096 -0.079006955 0.10332437
000030 4f 0b 54 bd b8 7f 0a bd 32 d2 43 be 7b c1 aa be
       -0.051768597 -0.03381321 -0.19123152 -0.3335074
000040 98 d8 33 be 48 f0 03 be 79 84 d5 3c 43 fd 89 bd
       -0.17563093 -0.12884629 0.026064144 -0.06737759
000050 2b 46 96 bc 32 ec 85 bd d0 14 83 3d 00 79 3c bd
       -0.018344006 -0.06539191 0.06400454 -0.046013832
000060 6a 0c 3c be 24 6b 85 3d e8 9c 79 bd 03 10 18 3d
       -0.1836411 0.06514576 -0.060940653 0.037124645
000070 fe 5d 78 bd 3b 03 82 3d 64 88 c2 bd ea 24 03 be
       -0.060636513 0.063482724 -0.09498671 -0.1280705
000080 00 15 2f be b4 a4 48 be e5 20 84 3c d9 a5 cf bc
       -0.17097855 -0.1959408 0.016128967 -0.025347637
000090 80 68 3f bd fb b1 14 bd fa 8e 37 3b 45 c9 1c be
       -0.04673052 -0.036302548 0.0028008805 -0.15311153
0000a0 cb 88 27 be ba f1 a1 3c fd a7 97 bc d3 0d 59 be
       -0.16360776 0.019768585 -0.01851272 -0.2119668
0000b0 ec 78 30 bd 20 1a 9f bd e9 d5 fc 3d b9 f0 5a bd
       -0.04308407 -0.07768655 0.123454876 -0.053452227
0000c0 b0 75 0b bb 7f e2 2a 3d fc 4f ea 3c 6d a7 d0 3d
       -0.0021279864 0.04171991 0.028602593 0.10188184
0000d0 bd 77 ea 3c 95 dd bf bd 32 d4 74 bd b4 93 2e be
       0.028621549 -0.09368435 -0.059772678 -0.17048532
0000e0 33 66 95 3e 95 2a ac bd a1 4e 75 3d c1 d7 9b 3d
       0.29179534 -0.084065594 0.05988944 0.07609511
0000f0 80 c5 9b bd c3 0f 23 3d 15 66 1b bd 8f 68 8c bd
       -0.076060295 0.039809953 -0.03793915 -0.068558805
000100 61 13 c3 bb 0c f8 15 be 8c 93 26 3d 0f 01 05 3e
       -0.005953238 -0.14645404 0.040668055 0.12988685
000110 f2 aa 39 bd ad 42 87 bd e6 eb 5c be f7 85 bd 3c
       -0.04532904 -0.06604514 -0.21574363 0.023135168
000120 6d 3e ad bd 26 52 0f be 82 e5 8e 3d 72 1e 09 be
       -0.084591724 -0.13996181 0.06977369 -0.1339052
000130 e0 46 23 bd 73 0a be bd c9 57 d0 bd 45 a4 65 3d
       -0.039862514 -0.09279337 -0.10172994 0.056064863
000140 51 e2 83 3d 78 e5 34 3d 7c 2c 44 bd 5a 97 5e bc
       0.06439651 0.04416415 -0.047893986 -0.01358589
000150 7b fa a9 3c 55 af ca bc 23 a8 ac bd 4e f5 a7 3d
       0.020749321 -0.024741808 -0.08430507 0.08201085
000160 3d 9e bf bd 4d 99 bd bd d5 72 02 3d 35 ce 22 bd
       -0.093563534 -0.092577554 0.031847794 -0.039747436
000170 4d 12 68 bd e6 c0 ba be 52 92 27 3d 2e cf f8 3b
       -0.056658078 -0.36475295 0.040911026 0.007593057
000180 d7 8a 5c bd dc 4a 0a bd 69 8d 9a bc 99 53 d8 3c
       -0.053843345 -0.033762798 -0.018866258 0.02640705
000190 d8 9c 17 bd 83 f2 66 bd 56 49 cd bd 00 d7 1f bd
       -0.037014812 -0.05638362 -0.10023753 -0.0390234
0001a0 ff 3b a0 bd 37 8f 22 be 26 5b 5a bd f6 0f 45 bb
       -0.07823943 -0.15874945 -0.053309582 -0.0030069328
0001b0 58 64 01 be 26 28 06 be 01 75 97 bd db 88 d7 bd
       -0.12635934 -0.13101253 -0.073953636 -0.1052415
0001c0 d0 67 ff bd b2 6e 35 be b6 7a aa 3c c8 9c 19 be
       -0.124709725 -0.17718008 0.020810466 -0.15001214
0001d0 1a b1 c6 3d d7 29 48 be 0c c4 6e bd bf 0b d8 bd
       0.09701748 -0.1954721 -0.058292434 -0.105491154
0001e0 bb 56 a4 be b8 f5 b5 bd 91 5c 08 be 7f 37 32 be
       -0.3209742 -0.08884758 -0.13316561 -0.17403983
0001f0 97 00 27 be f4 bd 34 bd 4a e6 54 bd de 1c 81 bd
       -0.16308819 -0.044126466 -0.051977433 -0.06304334
000200 25 d7 fd bd ef 8e ab bd a8 27 53 be 41 3f c7 3c
       -0.12394551 -0.08376872 -0.20620596 0.024322154
000210 d2 0d 8d bd 96 5e 19 be b4 4f 44 bb 4b 09 b7 bd
       -0.06887402 -0.14977488 -0.0029954733 -0.08937319
000220 72 08 30 be e2 76 7e be 70 f4 a5 bd fc 5c 3b be
       -0.17190722 -0.24850038 -0.081032634 -0.1829719
000230 d4 6e 30 be e5 01 14 bd 4e 5f 63 bd 26 72 73 be
       -0.17229778 -0.03613462 -0.05551081 -0.23774013
000240 97 a7 fc bd 30 49 7b be dc c8 5a be da b7 18 be
       -0.12336653 -0.24539638 -0.21365684 -0.14913884
000250 96 d4 5f bd 4a f4 5d bd e8 73 87 bd 2c 65 85 bd
       -0.054646097 -0.05418805 -0.06613904 -0.06513438
000260 98 1e d1 bd dc d5 a3 bd 8a f3 db bd f9 b8 c1 bd
       -0.102109134 -0.07999775 -0.10739811 -0.09459109
000270 9d f8 5b bd 06 06 7c bd df de 90 3c 06 7e a8 bd
       -0.053703893 -0.061529182 0.017684398 -0.08227162
000280 a4 f4 1a be eb 37 1c be 5a 84 60 bd a8 44 37 bd
       -0.15132385 -0.15255706 -0.05481372 -0.04474321
000290 a9 57 14 bd 8b fa 7a bd c5 f0 9f bd 16 e6 35 bd
       -0.03621641 -0.061274093 -0.07809595 -0.04440888
0002a0 ee 98 00 be 05 47 dc bd 9d 0f 52 be 75 e8 17 be
       -0.12558338 -0.107557334 -0.20513768 -0.14834769
0002b0 9d 0a a8 bd d6 66 79 bd f7 90 99 bd 93 e2 16 3d
       -0.08205149 -0.060889088 -0.07498353 0.03683717
0002c0 b7 06 ec bd dc 31 b2 bc a1 38 36 be f2 db 4b be
       -0.11524718 -0.02175229 -0.1779504 -0.19908121
0002d0 d4 49 45 be 61 b9 7a bd f9 42 cf be 79 b2 83 3d
       -0.19266444 -0.061211947 -0.40480784 0.06430525
0002e0 75 23 8e be 0c 93 f7 bc 1d 43 ad bc 2e 55 ae 3d
       -0.27761427 -0.030221485 -0.021150166 0.085123405
0002f0 d5 97 68 bd 49 fb 05 3d 02 b3 cf bc ee 63 aa bd
       -0.056785423 0.032710347 -0.025353912 -0.08319841
000300 d3 50 9d bd d7 ef 99 bc 46 0d 0f be bf fb 28 bd
       -0.076814316 -0.018791122 -0.13969907 -0.04125571
000310 fb 00 05 bd 24 0a a5 bd 54 56 25 3d 04 e1 87 3d
       -0.03247164 -0.08058575 0.040365532 0.06634715
000320 ca 16 3b 3b 34 a8 0d 3c 6e a1 9a bc 0b e4 9b 3d
       0.002854752 0.00864606 -0.018875804 0.07611855
000330 5a 39 2e bd d3 f9 a0 3a 47 b5 81 bd 30 fd a7 bb
       -0.042535163 0.0012281485 -0.06333404 -0.005126618
000340 a1 55 00 be dc f9 05 be 29 4e 6b bd 15 33 d1 3c
       -0.12532665 -0.13083595 -0.057447586 0.025537053
000350 bd 08 e8 bc 9a 9a 71 3c ff 9e e0 bd 92 55 ca 3d
       -0.02832448 0.014746333 -0.10967826 0.098796025
000360 2e 52 e4 bc 37 1b f6 3d 37 b6 3a 3b 17 e3 64 bd
       -0.027871218 0.120169096 0.0028489956 -0.055880632
000370 16 80 9c bd 02 c8 9a be 31 32 96 bd 89 f6 98 bd
       -0.07641618 -0.3023072 -0.07333792 -0.07468898
000380 61 89 34 be 54 69 df bd a1 7c f1 bc ee cb a4 bd
       -0.17630531 -0.109087616 -0.029478373 -0.08046709
000390 8d a6 23 3d 8b 9c aa bd a2 f5 2b 3c 84 43 b7 bd
       0.039953757 -0.083306395 0.010495575 -0.089484245
0003a0 90 27 a1 bd 3f 96 16 bd 21 68 b9 bd 92 cb 58 bd
       -0.07868874 -0.03676438 -0.09053064 -0.052928515
0003b0 68 1e a0 bd dd 70 ce bd af bb 84 be bb 92 bf bc
       -0.078182995 -0.10080121 -0.2592444 -0.023385396
0003c0 62 25 b2 bb 9b 7e 89 bd fd 4e 4e bd 38 4f 06 be
       -0.0054365853 -0.06713601 -0.050368298 -0.13116157
0003d0 9b b3 5f bd 2c 33 f8 bc ed dd 1b bd ab 44 7c bd
       -0.054614644 -0.030297838 -0.03805344 -0.061588924
0003e0 92 32 03 3b 15 e9 5a bd d7 39 a1 bd df b8 82 bc
       0.0020019156 -0.05344494 -0.0787236 -0.015957294
0003f0 ee 51 19 be d5 c7 25 bd fb b2 8d bc bb ac 56 bd
       -0.1497266 -0.040473778 -0.017297259 -0.052410822
