files/adj_models/gene_based/bulkgenexpr/weights-1.pth (torch, 611428 bytes, 2 tensors)

fc.weight f4 [386, 394]
0	0x3eb7e6c0	0.35918236
1	0xbd4cff4a	-0.05004815
2	0x3dab8c03	0.083763145
3	0xbc07f63e	-0.008298455
4	0x3c4a6a34	0.012354422
5	0x3e6b5f9b	0.2298569
6	0xbdce6a17	-0.10078829
7	0xbbf32e2a	-0.0074212747
8	0xbde2c8be	-0.11073445
9	0x3e5e76df	0.21725033
10	0x3dc994e5	0.098428525
11	0x3cd041d1	0.025422009
12	0xbc18d14e	-0.009327246
13	0xbe0b9346	-0.13630399
14	0x3da37051	0.07980407
15	0x3de371b7	0.11105674
16	0x3bf1d979	0.007380661
17	0x3d841c09	0.0645066
18	0xbe516b40	-0.20451069
19	0xbd112942	-0.035439737
20	0xbe0f6c88	-0.14006245
21	0xbce04b4d	-0.027379656
22	0xbea7ba1d	-0.3275918
23	0xbddb9c9d	-0.10723231
24	0x3cd95ce6	0.026533555
25	0x3e1020c8	0.14075005
26	0xbcc8ed8d	-0.024527336
27	0x3e85de85	0.2614633
28	0xbe68b373	-0.22724704
29	0xbe7b0a50	-0.24515653
30	0xbd85f8a0	-0.06541562
31	0x3c36d2cf	0.011158659
32	0x3d4d628c	0.05014281
33	0x3d575d03	0.052578937
34	0x3d83e98d	0.06441031
35	0xbd27f9c5	-0.041009683
36	0x3cc36748	0.02385296
37	0xbd861f5d	-0.06548951
38	0x3cd7368a	0.026271123
39	0xbdd9992c	-0.10624918
40	0xbceb078d	-0.028690124
41	0xbb00ef34	-0.0019673826
42	0x3d9ab296	0.07553594
43	0x3db4b1b4	0.08822957
44	0xbb8e9c94	-0.0043521617
45	0xbe578392	-0.21046284
46	0xbd41280c	-0.047157332
47	0xbdaf703b	-0.08566328
48	0xbd021f1d	-0.031767953
49	0xbd1aab5f	-0.03776109
50	0x3af86668	0.0018951418
51	0x3da81ee8	0.0820902
52	0xbe8bd03e	-0.27307314
53	0x3d1ecf98	0.038772196
54	0xbe0020e0	-0.12512541
55	0xbd8cd077	-0.06875699
56	0x3de3c363	0.111212514
57	0x3e92824a	0.28615028
58	0x3daf998a	0.08574207
59	0xbd1c6684	-0.038183704
60	0x3cacdcc4	0.021101363
61	0xbc267818	-0.0101604685
62	0xbec91b66	-0.39278716
63	0x3c9beb1a	0.019033004
64	0x3dd766b1	0.10517634
65	0x3d158d26	0.036511563
66	0xbdb8b32b	-0.090185486
67	0x3db1797d	0.0866575
68	0x3c7262be	0.01479405
69	0xbdae6853	-0.08515992
70	0x3c1f8ac2	0.009737672
71	0xbe6ef784	-0.23336607
72	0x3c40e1dc	0.011772599
73	0xbdfba19d	-0.12286685
74	0xbdc2b216	-0.095066234
75	0x3d99d369	0.075110264
76	0xbe6d5f96	-0.23180994
77	0xbd78eb19	-0.06077108
78	0x3d30b6cb	0.043143075
79	0x3b821d18	0.0039707534
80	0x3e2fa9f6	0.17154679
81	0xbe150c93	-0.14555578
82	0xba967f6d	-0.0011482068
83	0x3c62aaa5	0.01383463
84	0x3cdbbe2a	0.026824076
85	0x3e6be1b0	0.23035312
86	0x3d4bf73d	0.04979633
87	0xbe059e6e	-0.13048717
88	0xbd8dde0c	-0.06927118
89	0xbe6e2a86	-0.23258409
90	0x3e57e86b	0.21084754
91	0xbdf836a9	-0.121198006
92	0xbdc4f35f	-0.09616732
93	0x3c16ce66	0.009204483
94	0x3dcf601d	0.10125754
95	0x3d628fab	0.055312794
96	0xbd8d07f0	-0.068862796
97	0xbc7958a2	-0.015218886
98	0x3dad8d63	0.08474233
99	0xbd6672fd	-0.056262005
100	0xbd3bc78c	-0.0458446
101	0x3dd82548	0.10553986
102	0xbd2f082b	-0.0427324
103	0x3d61f0d2	0.055161305
104	0x3d7dd329	0.061968956
105	0x3d5cd760	0.053916335
106	0xbdc407c9	-0.095717974
107	0x3c9b76c8	0.018977538
108	0xbcb21dc9	-0.021742718
109	0xbd56b9ef	-0.052423414
110	0xbe07e546	-0.13271055
111	0xbd578d55	-0.05262502
112	0x3e277e2f	0.16356729
113	0xbec7eb94	-0.3904692
114	0xbd91aa1e	-0.071125254
115	0xbdb2177d	-0.08695886
116	0xbe8e298d	-0.27766076
117	0x3da5a339	0.08087773
118	0x3baf6c96	0.0053535206
119	0xbd4f2b32	-0.050578304
120	0x3d84110b	0.06448563
121	0x3eb255dc	0.3483113
122	0x3e34b2f6	0.17646393
123	0x3d0b1433	0.03395481
124	0x3d3758c4	0.044762388
125	0x3eac7f61	0.33690932
126	0x3d6c8f26	0.057753704
127	0x3bb1a894	0.0054217074
128	0xbe008e2c	-0.12554234
129	0xbd19acbd	-0.03751825
130	0x3c5dd6c2	0.013539972
131	0xbd904861	-0.07045055
132	0x3d31f09c	0.043442354
133	0xbc802cc7	-0.015646352
134	0x3cca6ca0	0.02471
135	0x3c6224af	0.013802691
136	0xbc904a93	-0.017613685
137	0x3de6438b	0.112433515
138	0xbdc0efb9	-0.094207235
139	0x3dda5240	0.10660219
140	0x3d9e5478	0.07730955
141	0xbd91d2c7	-0.07120281
142	0x3e42aff0	0.19012427
143	0xbdcc28ca	-0.099687174
144	0x3dc9af5f	0.098479025
145	0xbddc0ff4	-0.1074523
146	0xbca71def	-0.020400016
147	0xbcac242c	-0.021013342
148	0xbda1e62c	-0.0790523
149	0x3e63a598	0.22231138
150	0xbc253f0f	-0.010085835
151	0xbe963c04	-0.29342663
152	0x3e94d942	0.29072005
153	0xbe20f148	-0.15717041
154	0xbdf5cf52	-0.12002434
155	0x3d2d77fe	0.04235076
156	0xba0a9c6e	-0.0005287592
157	0xbd342d5f	-0.04398858
158	0xbe0499c6	-0.12949285
159	0x3d893dee	0.06701265
160	0x3db7e683	0.089795135
161	0xbdb10ea1	-0.08645368
162	0xbec6c31f	-0.3882074
163	0x3cef167c	0.029185526
164	0xbcf1c9cc	-0.02951517
165	0x3ca3fe47	0.02001871
166	0xbdb9f930	-0.09080732
167	0xbdbbd257	-0.091709785
168	0xbe322439	-0.1739663
169	0x3c6b9239	0.014378124
170	0xbd3e6fbf	-0.046493288
171	0xbb8f363b	-0.0043704784
172	0x3bcf2765	0.006321835
173	0xbd81ef4a	-0.06344469
174	0xbe0c09df	-0.1367564
175	0xbd7e2e1b	-0.06205569
176	0xbd08237a	-0.033236958
177	0x3e12dda0	0.14342356
178	0xbb82e9d1	-0.0039951582
179	0xbc58a46c	-0.013222795
180	0xbdb04c0a	-0.08608253
181	0x3bdaee62	0.0066812495
182	0x3cd49b77	0.025953038
183	0x3d7c96a1	0.06166709
184	0x3dacb1b9	0.084323354
185	0xbda06eb1	-0.07833613
186	0xbd877e90	-0.06615937
187	0xbe6c60ac	-0.23083752
188	0xbc939097	-0.018013282
189	0x3e06ce64	0.1316467
190	0xbd84f291	-0.06491578
191	0x3e3edbf0	0.18638587
192	0xbc1dec24	-0.00963882
193	0xbe70c3f2	-0.23512247
194	0x3cd21ca0	0.025648415
195	0xbe3248b7	-0.17410551
196	0x3e0c94be	0.13728616
197	0xbd2560d1	-0.040375534
198	0xbdae7897	-0.085190944
199	0x3cc50611	0.024050744
200	0xbd7356d2	-0.05940897
201	0xbd3c5d19	-0.045987222
202	0x3eacde0c	0.33763158
203	0xbd52b3f2	-0.05144114
204	0x3d0c5ba2	0.034267075
205	0x3d4964da	0.049168445
206	0xbb99a809	-0.004689221
207	0x3b13ab3b	0.0022532481
208	0xbe7cff09	-0.24706663
209	0xbe7c6b3f	-0.24650286
210	0x3d40b76d	0.04704993
211	0x3e57be41	0.2106867
212	0x3cb5d256	0.022195023
213	0x3df3adb0	0.11898363
214	0xbc54ce1c	-0.012988593
215	0x3e5174b4	0.20454675
216	0x3d7d6042	0.061859377
217	0xbd37282a	-0.044716038
218	0xbd177b7b	-0.036982995
219	0x3cecda4b	0.028912684
220	0xbcb2be9b	-0.021819403
221	0xbdaf515e	-0.085604414
222	0xbdad4b54	-0.08461633
223	0x3cbdf543	0.023188239
224	0xbc4b06eb	-0.012391786
225	0x3de0d844	0.109787494
226	0x3d306c86	0.043072246
227	0xbd2bfa31	-0.041986648
228	0x3da6e886	0.08149819
229	0xbd556956	-0.05210241
230	0xbe0729dd	-0.13199563
231	0x3c50be12	0.012740629
232	0xbd47c0d1	-0.04876787
233	0x3d6b08b1	0.057381336
234	0x3cadbfa2	0.021209542
235	0xbd44a596	-0.048009478
236	0x3c50c69d	0.012742666
237	0x3c4b83ef	0.012421592
238	0x3db48bac	0.08815703
239	0xbd5e9238	-0.054338664
240	0x3c982f8c	0.01857736
241	0x3c44302e	0.011974378
242	0x3d8df358	0.0693118
243	0xbdda1050	-0.106476426
244	0x3de2b696	0.11069982
245	0xbc13baa4	-0.009016667
246	0x3d2fa380	0.042880535
247	0x3e0131f1	0.12616707
248	0x3db1476b	0.086562
249	0x3d48b716	0.04900273
250	0xbcf31381	-0.029672386
251	0xbbb2d985	-0.0054580593
252	0x3d870948	0.06593567
253	0x3c88b70d	0.016688848
254	0x3c857dc3	0.01629532
255	0xbcd87d68	-0.026426986

fc.bias f4 [386]
0	0xbe6b9b95	-0.23008569
1	0x3d0cd274	0.03438039
2	0xbd403162	-0.046922095
3	0xbe405f3c	-0.18786329
4	0xbdff8edd	-0.12478421
5	0x3b0158e3	0.0019736819
6	0xbc22b6f9	-0.009931319
7	0xbca91de5	-0.020644138
8	0xbc379a38	-0.011206202
9	0xbd7b00ac	-0.061279938
10	0xbdd59dd8	-0.10430497
11	0x3dc3d3ac	0.095618576
12	0x3ba1ce15	0.004937897
13	0xbda315eb	-0.07963165
14	0xbe059e09	-0.13048567
15	0xbed850c2	-0.42249113
16	0xbe3608a1	-0.17776729
17	0xbd57cab9	-0.052683566
18	0x3c618bd2	0.013766246
19	0xbd5d1dd7	-0.053983536
20	0x3d227a4e	0.03966742
21	0xbd56ad6d	-0.052411485
22	0x3dd7107a	0.105011895
23	0xbd143e9d	-0.036192525
24	0xbe23b2f1	-0.1598623
25	0x3d08d2b9	0.033404086
26	0x3c9d07e6	0.019168805
27	0x3c9fde29	0.019515114
28	0xbd6855b6	-0.056722365
29	0x3d141da0	0.036161065
30	0xbdc6d229	-0.097080536
31	0xbd8518f8	-0.06498903
32	0xbe71cc6a	-0.23613134
33	0xbe39790c	-0.18112582
34	0xbb01fb76	-0.001983372
35	0xbd88303f	-0.06649827
36	0xbd9974f3	-0.074930094
37	0xbbf1beb1	-0.0073774685
38	0x3d700c72	0.05860562
39	0xbe4b4291	-0.19849612
40	0xbdf8582b	-0.12126192
41	0x3db23ac4	0.08702615
42	0x3cc908ef	0.024540393
43	0xbe76fc80	-0.24119759
44	0x3c664931	0.014055536
45	0xbd743c27	-0.05962768
46	0x3dc0da2a	0.094166115
47	0xbd509c2c	-0.050930187
48	0xbd4a72a5	-0.04942574
49	0x3c470f5f	0.012149661
50	0xbc12c9e6	-0.008959269
51	0x3d91b297	0.071141414
52	0x3cc25b8c	0.023725294
53	0xbe1052fa	-0.14094153
54	0xbd2bccd9	-0.041943405
55	0xbda3bed0	-0.07995379
56	0x3e858c7e	0.2608375
57	0xbd37cf75	-0.04487558
58	0x3d85ec45	0.065392055
59	0x3d5893fa	0.052875496
60	0xbddd3d24	-0.10802677
61	0x3d162673	0.03665776
62	0xbc87b8d7	-0.01656763
63	0xbd9e9ec9	-0.077451296
64	0xbd986924	-0.07441929
65	0xbdd4725e	-0.10373376
66	0x3ceb7192	0.028740678
67	0x3dd20aec	0.102559894
68	0xbd1753ac	-0.03694503
69	0xbd78e68c	-0.06076674
70	0xbe44a974	-0.19205266
71	0x3a96bc30	0.0011500176
72	0xbdd3e6c3	-0.10346749
73	0xbdf9e1f7	-0.122013025
74	0x3d90fc77	0.07079404
75	0xbd91c94f	-0.07118475
76	0x3c4b8b33	0.012423324
77	0xbd5a10f7	-0.053238835
78	0xbdf5109c	-0.119660586
79	0x3bccf688	0.0062549748
80	0xbc72f76e	-0.0148295
81	0x3c7d7f2e	0.0154722165
82	0xbd68a2a7	-0.056795742
83	0x3d06d9d8	0.032922596
84	0x3d20f27f	0.039293762
85	0xbbe3ad40	-0.0069481432
86	0xbde73087	-0.11288553
87	0x3d5f7f1a	0.054564573
88	0xbd2fff95	-0.04296835
89	0xbe0ce26f	-0.13758253
90	0x3cce5f18	0.025191829
91	0xbce226da	-0.027606416
92	0xbd159922	-0.036522992
93	0xbeb0177f	-0.34392926
94	0x3d993a56	0.0748183
95	0x3c73fe5a	0.014892185
96	0xbd8532a3	-0.06503799
97	0x3c062e9c	0.0081898235
98	0xbb85681f	-0.00407125
99	0x3cbc784d	0.023006583
100	0xbd0f0d0c	-0.03492455
101	0xbda33095	-0.07968251
102	0xbdbe15b8	-0.09281486
103	0xbd2ec006	-0.042663597
104	0xbdd4414e	-0.103640184
105	0xbde5f80a	-0.1122895
106	0xbd2f93f3	-0.042865705
107	0x3bde496f	0.0067836563
108	0xbdffe600	-0.12495041
109	0xbdf106af	-0.11768853
110	0xbdc64b72	-0.09682359
111	0xbdd62012	-0.10455336
112	0xbd9eaf7d	-0.077483155
113	0xbdbe0734	-0.09278718
114	0x3c92da0a	0.017926235
115	0xbde6a141	-0.112612255
116	0x3da928a3	0.08259704
117	0xbe35fc05	-0.17771919
118	0xbc351c3b	-0.011054094
119	0xbe16945c	-0.14705032
120	0xbe87b566	-0.26505584
121	0xbd8cb4e7	-0.06870442
122	0xbdff613a	-0.12469716
123	0xbe43e403	-0.19129948
124	0xbe285d64	-0.16441876
125	0xbd2e0408	-0.042484313
126	0xbde66cbc	-0.11251208
127	0xbd4fd4b9	-0.050739978
128	0xbd7ec113	-0.06219585
129	0xbd964a66	-0.07338409
130	0xbe240eb3	-0.16021232
131	0x3ca29668	0.01984711
132	0xbdb25b37	-0.08708804
133	0xbe3aeeee	-0.18255207
134	0xbd19cca9	-0.037548695
135	0xbdb00180	-0.08594036
136	0xbe564ceb	-0.2092778
137	0xbe3d5f9a	-0.184935
138	0x3c976d15	0.018484632
139	0xbe6781fb	-0.22608177
140	0xbe84fba6	-0.25973243
141	0xbd467405	-0.04845049
142	0xbd468e78	-0.048475713
143	0xbe7b0be2	-0.24516252
144	0xbdd740a6	-0.105103776
145	0xbe51c845	-0.20486553
146	0xbe3be22a	-0.18347993
147	0xbe0c6193	-0.13709097
148	0xbcb5a8e3	-0.022175258
149	0xbcd1dc8a	-0.025617857
150	0xbde1a60b	-0.11017998
151	0xbd9626ad	-0.073315956
152	0xbde265b1	-0.11054552
153	0xbdbeb10c	-0.09311113
154	0xbdaf5b31	-0.08562315
155	0xbdb414ff	-0.08793067
156	0xbd839d45	-0.06426481
157	0xbde6ff94	-0.112792164
158	0x3d353a7e	0.044245236
159	0xbd957ff0	-0.07299793
160	0xbe0491a5	-0.12946184
161	0xbd7e1e91	-0.06204087
162	0xbc8ffb17	-0.017575784
163	0xbd1724c9	-0.036900315
164	0x3d197538	0.037465304
165	0xbcbfed9f	-0.023428736
166	0xbdf28e03	-0.11843493
167	0xbd48f96b	-0.04906599
168	0xbe326336	-0.17420658
169	0xbdbb19e7	-0.091358
170	0xbe1891ba	-0.1489934
171	0xbdc3bfca	-0.09558065
172	0xbd4fc55d	-0.05072533
173	0xbe0f382d	-0.13986273
174	0xbd9e5fc1	-0.07733107
175	0x3d49c765	0.049262423
176	0xbdc1bebb	-0.09460207
177	0xbd281bc6	-0.04104211
178	0xbe1d5cc6	-0.15367422
179	0xbe1805c1	-0.14845945
180	0xbe3aef71	-0.18255402
181	0xbddf129f	-0.108922236
182	0xbed68e64	-0.4190551
183	0x3bbab11f	0.005697384
184	0xbe68bd1d	-0.22728391
185	0xbd4011dd	-0.046892036
186	0x3cbca036	0.023025613
187	0x3df96272	0.1217698
188	0xbdabca46	-0.0838819
189	0x3d83c76f	0.06434523
190	0xbcc22bfe	-0.023702618
191	0xbda69220	-0.0813334
192	0xbd56fd33	-0.052487563
193	0x3bb1ac00	0.0054221153
194	0xbe4c2b14	-0.19938308
195	0xba9e3147	-0.0012069129
196	0xbd486c9e	-0.04893171
197	0xbc40dcc6	-0.0117713865
198	0xbb5529d2	-0.0032526148
199	0x3d8840a0	0.06652951
200	0xbd10eb66	-0.035380743
201	0x3d20c992	0.039254732
202	0xbd1a5d3c	-0.03768657
203	0x3da8926c	0.08231053
204	0xbc948c04	-0.01813317
205	0xbc93a167	-0.018021299
206	0xbd209c0d	-0.03921132
207	0xbc994137	-0.018707855
208	0xbe1674e2	-0.14693025
209	0xbdf7b2a3	-0.12094619
210	0xbc892ffc	-0.016746514
211	0xbbf87502	-0.007582308
212	0xbcc89a88	-0.024487749
213	0x3bb6112e	0.005556247
214	0xbdd00917	-0.10157984
215	0xbc0a26e4	-0.008432124
216	0xbb6f8300	-0.0036546588
217	0x3d221e5f	0.039579745
218	0xbcaee028	-0.02134712
219	0xbd84c7e3	-0.06483438
220	0xbd1aed0c	-0.03782372
221	0xbe3f8204	-0.18701941
222	0xbd0673a0	-0.032825112
223	0xbdcfef71	-0.10153092
224	0xbdf4f6a7	-0.11961108
225	0xbe2f2f28	-0.17107832
226	0xbce87280	-0.02837491
227	0xbb9916fd	-0.00467193
228	0x3b801dec	0.003909817
229	0xbd69cef4	-0.05708213
230	0xbca08672	-0.019595359
231	0xbe2c1234	-0.16803819
232	0xbda5a131	-0.080873854
233	0x3b73f3a8	0.0037224088
234	0xbd992cc5	-0.07479242
235	0xbd8189bd	-0.063250996
236	0xbdc41ee1	-0.09576202
237	0xbd4f2dad	-0.05058067
238	0xbe0b73bb	-0.13618366
239	0x3aec02d0	0.0018006209
240	0x3c8bb0f8	0.017052159
241	0xbd9d0531	-0.07667006
242	0xbda49930	-0.08037031
243	0xbd80d8ee	-0.06291376
244	0xbc82aa8e	-0.015950467
245	0xbc723846	-0.014783924
246	0x3ca7f786	0.02050377
247	0xbd28a7bc	-0.04117559
248	0xb8b97560	-8.84335e-05
249	0xbca1126e	-0.019662108
250	0xbd700735	-0.058600623
251	0x3cbdc661	0.023165883
252	0xbe28ae32	-0.164727
253	0xbd08a2b4	-0.03335829
254	0xbceac7c0	-0.028659701
255	0xbd10a216	-0.035310827
