files/adj_models/gene_based/bulkgenexpr/weights-3.pth (torch, 611428 bytes, 2 tensors)

fc.weight f4 [386, 394]
00000000: f1ff c43e 8304 013d eb91 0a3e 4761 77bd
00000010: c26e 913c ecca 843e 7dba 40bd 78ef 7dbd
00000020: 3dc8 0fbe 4ac1 433e a7f9 873d 5a40 563d
00000030: 6725 95bd 5571 f3bd 93fd c73d 8c68 1a3d
00000040: e4d7 11bd b871 eb3c efa6 08be c4f9 45bd
00000050: ea73 06be 4052 893d e70a 4ebe 69e2 41bd
00000060: 3ef2 b83d 502d 553e a2ce 28bc efb6 363e
00000070: 393d 6bbe ca29 19be a8df 99bd 6a5c 373d
00000080: e8a6 373e 17af b93c fea9 da3d 6c62 52be
00000090: c0ca 1e3d 5652 89bd 6574 ee3c 5ab4 cabd
000000a0: aa6d c0bb f022 3ebc da82 5d3d 16c0 5f3c
000000b0: 608a 2bbd 4170 19be 9de1 77bd 25de 243c
000000c0: ff44 363d 7c81 20bb f451 2dbc a3d2 c23d
000000d0: 6dbf 52be 9d80 4ebb 0fa7 743d ad00 ab3b
000000e0: 7395 c53d 0b2b 883e 4fdf 4e3e 82fd 54bd
000000f0: 31ff 403d d8ef aab9 d01f f8be 6493 4c3d
00000100: c436 dd3d 6870 8f3c 4ad5 a1bd 2a6a b23d
00000110: 2248 853d ec71 a9bd dc07 45bc 8402 edbd
00000120: ac91 b03c ca58 f53d b7f9 46bd 5c6f d23d
00000130: b78d 6abe ef20 b9bd 3651 38bd 844f 823d
00000140: 17bb 923e 3cd3 73bd f9bd a23c c698 753d
00000150: 2e78 a23c bb9c e23e f13c 943d 97c1 87bc
00000160: 6a16 8d3b 3166 36be 4bef e43d c297 c0bd
00000170: 6444 14be 8703 0c3d e786 003d c9f6 0b3d
00000180: 5d3d bebd 3a3a d93b ab33 063e 98b7 89bd
00000190: ad43 fabd 5ada a13d 5ba7 81bd 40da 3c3d
000001a0: c94e 813e 0ae0 d23d 9ca4 f9bc 5fa9 423d
000001b0: 104a 1e3c 2dd5 78bc 010c bdbd d2be e03b
000001c0: fab7 7d3d 0aed 78be 3bdc c3bd 068d 2cbd
000001d0: 3013 bdbe 6aff a03d d1f9 f4bb e48e 18bd
000001e0: 143c 143d fbef 8b3e f636 483c a859 073e
000001f0: b7b7 0e3d 4afd 7b3e 3e91 22bd 133e acbc
00000200: 52d4 14be 727a 6fbc 2bda 813c d4a6 c5bc
00000210: b9b7 cc3c ff55 e5bc 36aa 78bc d3b0 983d
00000220: fabc d5bd 102a 1a3e 3bb4 5a3d b89d 523e
00000230: ac74 a0bc 50e3 59bd f1a7 0f3e 80a2 73bd
00000240: 554e d93c 5c83 85bd 6034 1a3d c24b cebc
00000250: d03e 3bbd 9acb 333e 863b 013d 57a3 53be
00000260: 2a78 863e 8fbb 093d 8d7c 27bd dacc 293e
00000270: 196f 283d c63c a0bc 7cf4 57bd 943e 523e
00000280: 31d5 6f3d 2586 bebd c602 91be 7053 ed3c
00000290: b0e5 1cbd 2c8f 9a3e e404 a3bd c34e acbd
000002a0: c205 bfbd aff1 513d 6e4b 523c d445 48ba
000002b0: 67ad 7a3c 9f77 2fbd c395 10be 21ad 24be
000002c0: b8bd eabd 1922 b93d 1ace 5c3b 3223 cabc
000002d0: 571c a9bd 4d18 093d 5771 223b 9cfc 11bd
000002e0: 4dad d43c 15d5 bebd 5444 e03a 9ec9 8bbe
000002f0: 2159 03bd faa3 163e 1979 1bbd 83c5 583e
00000300: 3d23 243c 75f8 7bbe 235b 423d 99e1 87bd
00000310: 8893 ca3d b275 5bbd 0062 3bbb 03b6 b13d
00000320: 12bd c8bc 297c e2bc fa29 ca3e 7566 8ebc
00000330: 3648 9b3b 8382 c33b 2289 20bd a0d6 ab3c
00000340: 5278 98be e573 d6be 0318 9d3c 2e97 813e
00000350: 9753 cf3c 8acf 953d 3a11 93bd 86dc 5a3e
00000360: e86c 00be d043 c7bd 3f96 01bc 1f2f 4d3d
00000370: e549 60bc e1a0 19be d116 5ebd 4da8 5bbd
00000380: 1c04 1f3d 9fe8 553d 7db8 693c 8608 ecbc
00000390: 1ab2 1cbd 3e5c 333c 72b7 44be f605 b23c
000003a0: 6476 8a3c 5ac3 533d 2c1a 7cbc c54d c7bd
000003b0: 1f9c f3bd 23ef 14bb 45d8 443d 45f9 013d
000003c0: 56d5 8f3d a7e8 a83c 9636 9bbb 75ed e2bd
000003d0: 24d9 363e 905f 3bbb 84a7 adbb 97b2 c23d
000003e0: ea74 933d 7c35 e9bc 627d 20bd 6768 03bd
000003f0: 5481 833d 164a 743b eca3 2e3d 6f83 27bd
0.38476518 0.031498443 0.13532226 -0.060395505 0.017753009 0.25936067 -0.04705285 -0.061995953
-0.14041229 0.19116703 0.06639414 0.052307464 -0.072825246 -0.11886851 0.09765162 0.03769736
-0.03560628 0.028740749 -0.1334493 -0.0483339 -0.13130155 0.06705141 -0.20121346 -0.047335062
0.09030579 0.20818067 -0.010303171 0.17843221 -0.22972573 -0.14957348 -0.07513362 0.044765867
0.17934763 0.022666497 0.10676955 -0.20545357 0.038767576 -0.067051575 0.029108236 -0.098976806
-0.005872448 -0.011605009 0.054079868 0.013656637 -0.04188001 -0.14984228 -0.060517896 0.010062729
0.044499394 -0.0024491241 -0.010578621 0.09512832 -0.20580836 -0.0031509765 0.059729632 0.0052185864
0.09647646 0.2659534 0.20202373 -0.051999576 0.04711837 -0.00032603624 -0.4846177 0.04994525
0.10801461 0.017509654 -0.0790201 0.087116554 0.06507899 -0.08273682 -0.0120258 -0.115727454
0.021553837 0.11979826 -0.04857799 0.10275146 -0.22905622 -0.09039485 -0.044999324 0.06362823
0.28658363 -0.05952762 0.019865977 0.05996015 0.019832697 0.442602 0.07238186 -0.016571803
0.0043056505 -0.1781242 0.11178454 -0.094039455 -0.14479214 0.03418305 0.031378653 0.0341709
-0.09289048 0.0066292556 0.13105647 -0.06724471 -0.122199394 0.079029754 -0.06330749 0.046106577
0.2525542 0.10296638 -0.030474 0.047524806 0.009661213 -0.015187544 -0.09230805 0.006858685
0.06194303 -0.24309173 -0.0956349 -0.042126678 -0.369287 0.07861216 -0.0074760695 -0.037245646
0.036190107 0.27331528 0.012220135 0.13217795 0.034843173 0.24608341 -0.039689295 -0.021025693
-0.14534119 -0.014616596 0.0158511 -0.024127401 0.02498995 -0.027995108 -0.0151773 0.074556015
-0.10436435 0.15055108 0.053394537 0.20567977 -0.019586883 -0.053195298 0.14028908 -0.059481144
0.02652661 -0.065191954 0.037647605 -0.025182609 -0.0457142 0.17558137 0.031550907 -0.20667778
0.26263553 0.033626135 -0.040890265 0.16582051 0.041121576 -0.019560229 -0.052723393 0.20531684
0.058552925 -0.0930293 -0.28322428 0.02897045 -0.038304985 0.30187356 -0.07959917 -0.0841346
-0.0932727 0.051255878 0.012835367 -0.00076398 0.015300131 -0.04283869 -0.1411963 -0.16081668
-0.11461967 0.09039707 0.0033692182 -0.024674986 -0.082573585 0.03347044 0.0024786794 -0.035641298
0.025961543 -0.09317986 0.0017110207 -0.2730226 -0.03206742 0.1471099 -0.037957285 0.21169095
0.010018167 -0.24606498 0.047450196 -0.06634826 0.098914206 -0.05357904 -0.0028592348 0.08677294
-0.024504218 -0.027647095 0.3948515 -0.01738284 0.004738833 0.005966486 -0.03919328 0.020976365
-0.29779297 -0.41885296 0.019176489 0.25310653 0.025308413 0.073149756 -0.0718102 0.21373186
-0.12541544 -0.09729731 -0.007909357 0.050093766 -0.013689493 -0.15002777 -0.05422098 -0.0536273
0.03882228 0.052223798 0.014265177 -0.028812658 -0.03825579 0.010947285 -0.19210604 0.021731358
0.016902156 0.051699974 -0.015387099 -0.0973163 -0.11895012 -0.0022725544 0.048057813 0.031731863
0.070231125 0.02061875 -0.0047367318 -0.110804476 0.1785627 -0.0028590895 -0.0052995104 0.095067196
0.07200034 -0.028467886 -0.039182074 -0.032081988 0.06421152 0.0037275604 0.042636797 -0.04089683

fc.bias f4 [386]
00000000: 4f8b 86be d9f7 1b3b e47e 24bd 5842 5ebe
00000010: ce08 eabd 4e7e 12bd e2f3 02bd f8a7 73bc
00000020: da92 09bd 6b5d 6fbd f5ec b8bd 0400 ca3d
00000030: 2275 10bd 0782 c7bd 8c03 1bbe eba7 f0be
00000040: f6ab 36be a78e b7bd 9230 b43c fc4a 9ebc
00000050: 40f4 2cbc b92f bebc 8434 6f3d 095e 61bd
00000060: a2f0 38be 1a5f 1c3d a615 76bc 75bc bdbb
00000070: ed22 61bd 85df 0e3d 53a2 c9bd 3737 0ebe
00000080: 192e 63be 0b0b 5ebe ae9a f1bb 058f d9bc
00000090: 62fe a8bd 16ca 5cbd 0af9 fb3c 1264 13be
000000a0: 80b0 e9bd 89b4 223e 8043 9fba 7848 4fbe
000000b0: 8bcd dabc fdac b1bd f87b 3b3e 5104 c7bd
000000c0: e163 8ebd fcf6 b43b 0304 703c 5d8c 983d
000000d0: a098 163d c725 b5bd 69a4 acbd 5bac fdbd
000000e0: a363 a33e 9363 42bc fed4 0c3c 57fe a93d
000000f0: 04b5 1bbe acca 493a b16f 29bd 206c 84bd
00000100: 1ff1 23bd 37ad 2dbe 752a c63c 017c 213e
00000110: c665 cb3c 97ab 99bc a27b 52be 5baf 9bbc
00000120: ced0 aabd 0720 16be 54e5 eb3d ea0a 5abe
00000130: baa4 863c b06b a4bd 788b 19be 5e05 5c3c
00000140: 291e d93c e6e2 19bd 4ab7 92bc 7b09 68bc
00000150: b308 9b3d 03d0 203d 7b50 a4bd b851 a93d
00000160: e66c 98bd 5c4d 8bbd b08c 4ebd 0916 ddbc
00000170: fc4e dcbc eabe cdbe e402 4cbd 336f 5fbc
00000180: caaf 4dbd bcaa 483c 5b9b 08bd 5bfc a83d
00000190: a05c 17bd eb15 7ebd bbd1 19be 312e 02bc
000001a0: edd9 bfbd 9641 18be 60fa c0bd a71a b13b
000001b0: ff2b 15be 5548 f8bd 4ae3 20bd 405f babd
000001c0: a241 d7bd 8c2f 32be 31a1 993c 576e 39be
000001d0: ad43 d73d a623 71be ca82 43bd e96d e5bd
000001e0: 4dd1 91be 9e38 02be b3ed 05be 9c38 33be
000001f0: 38d5 24be 5a00 57bd 0417 bebd 641e dcbd
00000200: f88a 18be ecce 08be 8736 74be 6054 53bd
00000210: 978b 75bc 292e 18be f9a2 d0bc b42f 8dbd
00000220: 1f64 5dbe a0de 59be 3b44 dfbb ddf6 4ebe
00000230: 64c0 55be c3d0 aebd 2ed5 58bd bf21 8ebe
00000240: 2718 e4bd 5704 8bbe 59ed 83be 0e69 e8bd
00000250: 9c18 65bd 314b aabd 1a5e 18be 1bf9 b7bd
00000260: 1bf7 2ebe e6e8 a8bd e37c ebbd 2654 45bd
00000270: 6bf0 9abd 786a bfbd adeb ef3b 205f 89bd
00000280: d1a7 1bbe 6ae6 20be e684 95bc fd34 49bd
00000290: 0ed7 0bbb 41c6 0ebd a1b4 adbd 11e3 8ebd
000002a0: 36c1 0cbe 4be9 d9bd 2c62 64be 0439 e9bd
000002b0: 597c 8ebd 885c 0dbe b877 f1bc ccc2 14bc
000002c0: 0120 07be d95d 38bd 3c2b 40be ab4a 14be
000002d0: 98d8 4fbe b63a bfbd b2fa cbbe 3059 fb3c
000002e0: be24 92be 4cbb 4dbc 02fa 3abc c7ae 143e
000002f0: 9e66 0abd 665c 553d 8122 9dbd 073e 48bd
00000300: 365e bcbd a739 5abd a055 25be f44c 0abd
00000310: e547 92bb e04b 55bc 3b11 273c 5ac6 9c3d
00000320: c01f 90bb 5a87 e73c 047e 97bd d367 643d
00000330: a709 debc f597 b93a 9c75 3bbd 7968 47bc
00000340: d1b4 29be 767f e0bd bbbc 4ebd 1f10 043c
00000350: 023a 5bbd 4cb1 c6bb 9896 05be 3433 0f3d
00000360: 0edd 18bd 7bae d83d 9731 14bd 839a babd
00000370: b255 19bd 7d31 62be a65d 26bd 5295 b0bd
00000380: db0e 2fbe 94e5 3cbe 1461 00bd 391a 8cbd
00000390: 84ff 943c bd5e 20be 51d3 a93c 32dc cbbd
000003a0: e98b cfbd 6fab 23bd 97d6 31bd 332b 0b3c
000003b0: 5162 a8bd 37dc b6bd 9918 79be 5eb8 79bd
000003c0: 48ea 133d 23ef 78bd cacb b1bd 9ee1 72bd
000003d0: 768d d5bc ec52 b1bc 5420 15bd 957e 84bd
000003e0: 8b14 45bc 0b75 bcbc b667 54bd 74ad 703c
000003f0: 6f58 30be 458f 62bd c8a0 9fbd 8e51 70bd
-0.2627816 0.0023798852 -0.040160075 -0.21704996 -0.114274606 -0.035764985 -0.031970866 -0.01487159
-0.033587314 -0.0584387 -0.09029571 0.09863284 -0.035267957 -0.097415976 -0.15138072 -0.4700311
-0.17839035 -0.08962756 0.021995816 -0.019322865 -0.010556281 -0.023216115 0.058399692 -0.05502132
-0.18060544 0.038176633 -0.01501981 -0.005790288 -0.05496495 0.034881134 -0.09845414 -0.1388825
-0.22185554 -0.216839 -0.0073731756 -0.026557455 -0.08251645 -0.05390366 0.0307584 -0.14393643
-0.11410618 0.15889181 -0.0012150854 -0.20242488 -0.026709339 -0.08675573 0.18309009 -0.0971762
-0.06952644 0.005522607 0.014649394 0.07448647 0.03676665 -0.08845096 -0.08429796 -0.1238639
0.31911954 -0.011864561 0.008595703 0.083004646 -0.1520577 0.0007697742 -0.041366283 -0.06465936
-0.040024873 -0.16960607 0.024190167 0.1576996 0.024828803 -0.018758578 -0.20554975 -0.019004514
-0.083406076 -0.14660655 0.1151835 -0.21293226 0.01643597 -0.08028352 -0.1499461 0.013429014
0.02650364 -0.037569903 -0.017909665 -0.014162417 0.075700186 0.039260875 -0.08023163 0.0826754
-0.07442646 -0.068018645 -0.05042714 -0.026988046 -0.026893131 -0.40184718 -0.049807444 -0.013637352
-0.050216474 0.0122477375 -0.033351284 0.08251258 -0.03695357 -0.06203262 -0.15021412 -0.007945583
-0.09367738 -0.14868769 -0.09422755 0.0054047885 -0.14567564 -0.12123171 -0.03927926 -0.09100199
-0.10510565 -0.1740095 0.01875362 -0.18108498 0.10510955 -0.23548755 -0.047732152 -0.11202604
-0.28479996 -0.1271691 -0.13078956 -0.17502064 -0.16096961 -0.05249057 -0.09281734 -0.10747984
-0.14896762 -0.13360184 -0.23848926 -0.05159414 -0.014986894 -0.14861359 -0.025468336 -0.06893864
-0.21620224 -0.21276331 -0.0068135536 -0.20211358 -0.20874172 -0.08535912 -0.05293768 -0.2776012
-0.11137419 -0.2715175 -0.2576702 -0.113481626 -0.055931672 -0.08315123 -0.14879647 -0.0898306
-0.17086451 -0.08247547 -0.114984296 -0.048175953 -0.07565387 -0.09346479 0.007321796 -0.06707597
-0.15200736 -0.15712896 -0.018251847 -0.0491228 -0.00213379 -0.03485704 -0.08481718 -0.06976903
-0.13745579 -0.106402 -0.22303075 -0.11387828 -0.06957311 -0.13804829 -0.029476032 -0.009079646
-0.13195802 -0.045011375 -0.18766493 -0.14481609 -0.20297468 -0.0933737 -0.39839703 0.030682176
-0.28543657 -0.012556862 -0.011412146 0.14519797 -0.03378927 0.05209007 -0.07672597 -0.04888728
-0.09197657 -0.053277638 -0.16145945 -0.033764794 -0.004464137 -0.013018578 0.010196979 0.0765502
-0.004398316 0.028262783 -0.073970824 0.055763077 -0.027104212 0.0014159667 -0.045766458 -0.012170904
-0.16572882 -0.10961811 -0.050472956 0.008060484 -0.053522117 -0.006063616 -0.13045728 0.03496094
-0.03732019 0.105801545 -0.036180105 -0.09111502 -0.03743524 -0.22089191 -0.040616654 -0.086222306
-0.1709551 -0.18446952 -0.03134258 -0.06840939 0.018188246 -0.1566114 0.020730646 -0.09954108
-0.101341076 -0.039958414 -0.04341754 0.008494186 -0.08221877 -0.089287214 -0.2432579 -0.060966842
0.0361121 -0.060774934 -0.08681448 -0.059297197 -0.02606843 -0.021645986 -0.036407784 -0.06469456
-0.012028824 -0.02300503 -0.05185672 0.014689792 -0.17221235 -0.055312414 -0.077943385 -0.058671527
